fall_time2vec_transformer.tflite (tflite, 167212 bytes, 16 tensors)

arith.constant f4 [2, 64]
-0.0114834085 -0.0023023249 -0.010026221 -0.001786764 0.0021792098 0.009795293 0.006515998 -0.010776174
-0.012236804 -0.009365489 0.002057296 -0.005531341 0.0023739056 -0.0065997364 -0.011329504 0.000853464
0.001306069 0.0052711787 -0.0003289938 0.006703405 -0.0011658281 -0.0012017936 -0.0014549196 -0.0077363523
-0.002624698 -0.004263613 -0.009238014 -0.010355969 0.006895013 0.006917675 0.010734913 0.0024475306
0.00998146 -0.011100108 -0.0025070251 -0.01162638 -0.0031118318 -0.006394364 -0.0023065687 -0.009269445
-0.0033167154 -0.0031216294 -0.0005897254 0.010375679 0.005894378 -0.011923082 0.012440734 -0.008357333
-0.0013613045 0.00049653504 0.00026706906 -0.0012400851 -0.0054727676 -0.01143198 -0.00977677 0.0026077018
0.0012341157 0.0073059513 -0.009485321 0.00092580466 0.008688374 -0.0035518452 -0.0018050283 -0.00957265
0.0065975725 -0.0012425482 -0.0014815867 -0.001958205 0.01214319 0.0026820183 -0.006583138 -0.003722647
-0.00082784746 0.009504651 -0.0014632478 0.0063910945 0.0032461644 0.011971219 -0.0013288126 0.00056828855
-0.007981648 -0.00631126 0.0065574977 -0.004938643 -0.002278611 0.0006784603 -0.0076337843 0.0009448901
0.002768986 0.00012004078 0.0048177126 -0.0049199075 0.0034307584 -0.010800908 -0.010983526 -0.010501744
-0.0021607385 0.011627406 -0.0057591647 0.0033165694 -0.0059156255 0.010187884 0.010728261 0.0029753149
-0.011366606 -0.00561226 0.0016069248 -0.010758889 -0.0019985333 0.0053847167 0.009669273 -0.0029084936
0.010265554 -0.006335451 -0.011792836 -0.0022811189 -0.0028731362 -0.009750861 0.009867094 0.011968942
0.005431153 -0.0055448073 -0.00031246245 0.012419434 0.00060482323 0.012143532 -0.009724704 -0.009925281
00000000: e824 3cbc 9ae2 16bb 0545 24bc da31 eaba
00000010: 13d1 0e3b 707c 203c 2784 d53b 8d8e 30bc
00000020: e07c 48bc b571 19bc b3d3 063b 4040 b5bb
00000030: 8793 1b3b 9a42 d8bb 629f 39bc 00bb 5f3a
00000040: 6730 ab3a dab9 ac3b cd7c acb9 3da8 db3b
00000050: b3ce 98ba 8085 9dba 00b3 beba 3a81 fdbb
00000060: 2003 2cbb c7b5 8bbb 0a5b 17bc 15ac 29bc
00000070: 90ef e13b aaad e23b 7de1 2f3c c066 203b
00000080: 4789 233c 3add 35bc e74c 24bb 927c 3ebc
00000090: e0ef 4bbb d087 d1bb cd29 17bb dfde 17bc
000000a0: 405d 59bb 4094 4cbb cd97 1aba c0fe 293c
000000b0: a025 c13b 0859 43bc 38d4 4b3c 32ed 08bc
000000c0: cd6d b2ba e729 023a 6705 8c39 5a8a a2ba
000000d0: e754 b3bb 334d 3bbc bf2e 20bc fae5 2a3b
000000e0: 0dc2 a13a c366 ef3b 5268 1bbc b3b1 723a
000000f0: af59 0e3c 13c6 68bb b396 ecba 9bd6 1cbc
00000100: 7330 d83b 00dd a2ba cd31 c2ba 3a55 00bb
00000110: 3bf4 463c cdc4 2f3b 5db7 d7bb a7f7 73bb
00000120: e703 59ba 65b9 1b3c 73ca bfba 636c d13b
00000130: 9abd 543b ef22 443c 8d2b aeba 33f9 143a
00000140: 75c5 02bc b0ce cebb 47e0 d63b 57d4 a1bb
00000150: c054 15bb b3da 313a d324 fabb 80b2 773a
00000160: e077 353b 67be fb38 e7dd 9d3b 2d37 a1bb
00000170: 93d6 603b 4bf6 30bc 3ff4 33bc 820f 2cbc
00000180: 2d9b 0dbb e080 3e3c 60b7 bcbb cd5a 593b
00000190: ddd7 c1bb 15eb 263c 97c5 2f3c 80fd 423b
000001a0: 003b 3abc 0de7 b7bb 739f d23a 0d46 30bc
000001b0: d3f9 02bb 4772 b03b df6b 1e3c 6d9c 3ebb
000001c0: db30 283c 9d99 cfbb bd36 41bc d37e 15bb
000001d0: 3a4b 3cbb 13c2 1fbc 98a9 213c 6219 443c
000001e0: d0f7 b13b 37b1 b5bb 00d2 a3b9 e27a 4b3c
000001f0: 008d 1e3a aaf5 463c 5d54 1fbc a59d 22bc

arith.constant1 f4 [2]
0.123030335 0.101824835
00000000: 54f7 fb3d 8a89 d03d

arith.constant2 f4 [64, 128]
-0.0490061 -0.04373436 -0.053107664 -0.02970377 0.0777634 -0.07528166 0.081655316 -0.058314927
0.05416597 0.012267536 -0.078794405 0.08074039 0.037855025 -0.009189625 -0.0026137894 0.022008188
0.03971804 0.035463464 0.026513087 0.0680932 -0.0408323 -0.042643517 0.015039576 0.036949202
0.0097214235 -0.043183472 -0.014208039 -0.07008457 0.06290219 0.038719308 -0.020084301 0.07201228
-0.06667649 0.018975174 0.07663266 -0.02290738 -0.038630694 -0.042038593 -0.007074443 0.06402629
-0.008317059 0.03113904 0.028274825 0.013565553 0.03217526 -0.03302254 0.017716069 -0.036879312
-0.010926139 -0.0749558 -0.014339549 0.018902566 0.08022612 -0.0014229303 -0.048435368 0.080584586
0.08818538 0.008082153 -0.009989319 -0.032083813 -0.06411929 0.025177768 0.048406404 0.0051943567
-0.025460478 -0.04315183 -0.062290914 0.08670945 0.013720685 0.043744624 0.0065395995 -0.06294866
-0.058116425 0.03517399 -0.043063406 -0.055055637 -0.071002685 -0.08711218 -0.00079984183 0.006942376
0.013517969 0.021039031 -0.019728644 0.026657829 0.06428988 -0.07853585 -0.074890755 0.0714254
0.015617704 0.045461223 -0.010060495 -0.02154333 -0.050519004 0.08021773 0.045710396 -0.002715258
-0.08106528 -0.021906761 -0.08535135 -0.03553109 -0.024417913 -0.044873666 -0.08584491 0.041218396
-0.052544266 0.05034122 0.04311791 -0.07162508 -0.05229544 0.0057770684 -0.029070493 -0.01891325
0.079514675 0.048498653 -0.05782123 0.06343069 -0.07332627 -0.086979575 0.06418845 0.031763613
0.02286319 0.0021660214 0.06385874 -0.045725536 0.036570292 0.08282073 -0.06691696 -0.062151954
0.07723886 -0.043632988 -0.0014018569 0.027109558 -0.049620938 -0.0443765 0.059975903 0.023271909
-0.029717542 0.06746917 -0.04294435 -0.07326177 -0.047231846 -0.058513418 0.08781706 0.08141799
-0.059410892 -0.06232881 0.04706548 -0.015864622 0.0047041257 0.04535199 -0.051558238 -0.070907876
-0.035025675 0.021287182 0.0058443346 0.01305643 -0.074749686 0.08069173 0.05343308 0.016186032
0.004567633 -0.020956656 -0.08182508 0.07714153 0.033412397 -0.025441112 -0.009520509 0.052586105
-0.040143218 -0.00922957 0.03129946 0.07537 0.07878229 0.024406312 0.021733338 0.021294568
-0.06785668 0.06377068 0.08278313 -0.054220572 -0.054878 -0.0093666 -0.06109287 0.0012040301
-0.06332578 -0.08299763 0.07231067 0.0033642878 -0.001711731 0.04349088 0.049466163 -0.028538158
-0.075825855 -0.04246674 -0.054427247 -0.05325685 0.012653959 -0.07589044 -0.038583342 0.038004782
0.009283865 -0.00555526 -0.046138365 0.06807631 -0.088010356 -0.04215414 0.01720742 -0.0050566522
-0.08221493 0.014004945 -0.0321519 -0.04296201 -0.04314639 -0.0131504275 -0.055753306 -0.069530666
0.025002342 -0.027137797 -0.021099586 0.045066845 0.067288645 0.0748567 -0.0020934339 0.08533897
-0.0020183492 -0.018999072 0.056986004 -0.025760438 0.07941753 0.033462502 0.02733479 -0.030281214
-0.08472275 0.07294558 -0.05884881 -0.008283847 0.08588772 0.0374707 -0.04157939 0.0064857784
0.025483038 -0.080647625 0.01845112 0.072274394 -0.053615488 -0.07788106 -0.020524325 -0.055074215
0.030843316 0.023952907 0.08471394 -0.04623882 -0.053370606 0.059870325 0.045513347 -0.05909047
00000000: 9fba 48bd cd22 33bd 6c87 59bd 5255 f3bc
00000010: 6b42 9f3d 452d 9abd e73a a73d a2db 6ebd
00000020: 23dd 5d3d c6fd 483c f65e a1bd 385b a53d
00000030: df0d 1b3d 1590 16bc 1c4c 2bbb 844a b43c
00000040: 62af 223d 2342 113d f931 d93c 7374 8b3d
00000050: c53f 27bd f8aa 2ebd 8e68 763c 0c58 173d
00000060: 9b46 1f3c 27e1 30bd d6c8 68bc 8088 8fbd
00000070: ddd2 803d 2398 1e3d d587 a4bc 2d7b 933d
00000080: af8d 88bd d371 9b3c 96f1 9c3d 42a8 bbbc
00000090: 383b 1ebd a930 2cbd bbd0 e7bb 3720 833d
000000a0: 4644 08bc 4d17 ff3c 9ba0 e73c 0e42 5e3c
000000b0: 35ca 033d a542 07bd 4a21 913c c30e 17bd
000000c0: 8c03 33bc 6d82 99bd 6df0 6abc 8ed9 9a3c
000000d0: 984d a43d 9e81 baba 2a64 46bd 8809 a53d
000000e0: 899a b43d 026b 043c 3eaa 23bc 516a 03bd
000000f0: f950 83bd 9b41 ce3c cb45 463d 6c35 aa3b
00000100: 7e92 d0bc f9bf 30bd c224 7fbd b994 b13d
00000110: b9cc 603c 902d 333d 234a d63b 3aeb 80bd
00000120: 7d0b 6ebd 9a12 103d 4163 30bd 0582 61bd
00000130: db69 91bd df67 b2bd 7aac 51ba df7c e33b
00000140: 797a 5d3c 0c5a ac3c f79d a1bc 8561 da3c
00000150: 6aaa 833d 67d7 a0bd 5360 99bd 7b47 923d
00000160: 66e1 7f3c 8c35 3a3d c6d4 24bc a37b b0bc
00000170: 04ed 4ebd 3149 a43d d33a 3b3d 78f2 31bb
00000180: 8e05 a6bd cf75 b3bc b0cc aebd 0c89 11bd
00000190: 1308 c8bc 73cd 37bd 75cf afbd 9fd4 283d
000001a0: a838 57bd 9832 4e3d 689c 303d 2cb0 92bd
000001b0: be33 56bd 904d bd3b 3e25 eebc f6ef 9abc
000001c0: 97d8 a23d 86a6 463d f4d5 6cbd f3e7 813d
000001d0: 152c 96bd 5922 b2bd 3c75 833d 901a 023d
000001e0: 964b bb3c cff3 0d3b 5fc8 823d b34a 3bbd
000001f0: bbca 153d ea9d a93d c20b 89bd 0c93 7ebd
00000200: 682f 9e3d 81b8 32bd 83be b7ba dd14 de3c
00000210: 533f 4bbd 22c4 35bd 4ba9 753d bba4 be3c
00000220: 3472 f3bc 472d 8a3d 6ae6 2fbd 440a 96bd
00000230: 2e76 41bd c4ab 6fbd 6ed9 b33d 7abe a63d
00000240: d658 73bd 7f4c 7fbd bcc7 403d 86f6 81bc
00000250: 1125 9a3b 02c3 393d bb2e 53bd 2638 91bd
00000260: 1577 0fbd 7562 ae3c d581 bf3b a3ea 553c
00000270: 5d16 99bd b541 a53d a5dc 5a3d 9298 843c
00000280: 15ac 953b 4bad abbc e893 a7bd 61fc 9d3d
00000290: 70db 083d e169 d0bc e9fb 1bbc 8764 573d
000002a0: 376d 24bd 9f37 17bc dd33 003d 965b 9a3d
000002b0: 9c58 a13d bfef c73c 1d0a b23c f271 ae3c
000002c0: 71f8 8abd 349a 823d 348a a93d 6416 5ebd
000002d0: c1c7 60bd 5e76 19bc 843c 7abd 8cd0 9d3a
000002e0: f2b0 81bd a9fa a9bd 9e17 943d 627b 5c3b
000002f0: 295c e0ba 7e23 323d 089d 4a3d dbc8 e9bc
00000300: 964a 9bbd 9bf1 2dbd 1bef 5ebd db23 5abd
00000310: 8d52 4f3c 726c 9bbd 9109 1ebd e7aa 1b3d
00000320: 5a1b 183c e608 b6bb 95fb 3cbd 986b 8b3d
00000330: c63e b4bd d2a9 2cbd 93f6 8c3c 46b2 a5bb
00000340: 4d60 a8bd ff74 653c b6b1 03bd eff8 2fbd
00000350: 45ba 30bd e474 57bc 945d 64bd 1866 8ebd
00000360: b6d1 cc3c 1650 debc 0ad9 acbc 0398 383d
00000370: a1ce 893d 784e 993d fe31 09bb 33c6 ae3d
00000380: 4846 04bb f1a3 9bbc 286a 693d 8e07 d3bc
00000390: a8a5 a23d fa0f 093d 36ed df3c 4f10 f8bc
000003a0: 1f83 adbd 7e64 953d 730b 71bd f9b8 07bc
000003b0: e7e5 af3d e07a 193d 274f 2abd a786 d43b
000003c0: cec1 d03c 952a a5bd ce26 973c 9904 943d
000003d0: ea9b 5bbd 1b80 9fbd a122 a8bc 8095 61bd
000003e0: 1fab fc3c e338 c43c 817e ad3d eb64 3dbd
000003f0: 239b 5abd 963a 753d 346c 3a3d d908 72bd

arith.constant3 f4 [128, 64]
0.10491133 0.056224227 0.1017039 -0.025177836 -0.057981104 0.0710921 -0.11381255 0.016747385
0.020013124 -0.037893236 -0.058659345 0.07401429 -0.027436122 0.09355858 -0.112053335 0.034349874
-0.004826635 0.07564506 0.0204878 -0.047299534 -0.018246427 0.051461667 0.05132553 0.0032853037
-0.04824294 -0.05684519 -0.015949428 0.07534982 0.027510822 -0.11910203 0.10666235 -0.117615625
0.040901497 0.07402332 0.026196375 0.1064641 -0.09586722 -0.09568782 0.0808973 0.06811549
-0.0010507852 0.10201204 -0.03105858 0.00698711 -0.07439104 0.037081897 0.106828526 -0.022093564
0.042775646 -0.12463011 0.11264607 -0.091366306 0.00015173852 -0.0023664534 -0.034956813 -0.08606793
-0.039697587 -0.122842446 0.11413413 -0.055182666 -0.016698226 0.024478734 -0.08911514 -0.102445915
0.09357001 -0.11797464 0.0005502254 -0.04802379 0.007343635 0.06510629 -0.07959494 0.064968094
0.112441584 -0.11425355 -0.008874521 0.040416747 -0.09365602 0.018996626 0.034445792 -0.10429858
-0.059386685 0.037423164 0.0223165 -0.056326613 -0.11759043 0.0869609 -0.041793138 -0.11395435
0.057306662 -0.08754659 -0.03337659 0.09202197 0.067117915 -0.12134759 0.0870561 -0.024080828
-0.038080126 0.10552378 0.08239539 -0.048955306 0.05225204 -0.11600849 0.030199721 0.12292333
0.0064090937 -0.08066134 0.053092614 0.029157534 -0.004084304 -0.08027226 -0.016308665 -0.057458907
0.0021969378 0.09134568 -0.09127535 0.0060135573 -0.02661112 0.10787332 -0.12230037 -0.03528984
0.12092665 0.004015982 -0.063644275 0.0944763 -0.017494276 0.08356126 -0.032156944 0.12325844
-0.11695041 -0.119343 0.058101475 0.002987668 0.05079469 -0.02414988 0.030151367 -0.021022975
0.030482322 -0.03288202 -0.06979106 0.017585725 0.096271425 0.11565639 0.0066753626 -0.08047399
-0.053135738 0.04038535 -0.012910292 0.007487461 0.07948853 -0.081437305 -0.10629541 -0.12201838
0.0056267977 0.058510482 -0.07598178 0.008088589 -0.055513218 0.11328344 -0.004611686 0.112993404
0.07984793 -0.00037246943 0.045148805 0.056848183 0.01629144 0.011412039 -0.029524848 -0.063813865
-0.061781958 0.10221307 0.11892539 -0.014966577 0.06654693 0.10943872 0.027166292 -0.04510714
-0.0042660832 -0.044815585 -0.059469417 0.11845924 -0.06731622 0.042557925 0.10904431 -0.031671196
-0.10364032 0.016615331 -0.11573003 -0.08839738 -0.004435584 -0.06896016 0.06311566 0.015695661
0.013566747 0.09401901 -0.08345966 -0.0580149 0.053583995 0.065884545 -0.08524719 0.06800714
-0.04811585 -0.11214711 0.10562454 -0.022303939 0.07260607 -0.00464502 -0.05033286 0.073945254
-0.10012783 -0.06994197 -0.07867397 -0.058103517 -0.096349716 -0.015612349 0.019423395 0.119070515
0.029023826 0.044716045 0.12314914 -0.09574993 0.03816344 0.0734597 0.0058104843 0.07459259
-0.06911594 -0.12135778 -0.015485197 -0.03128633 -0.067783 0.011992738 -0.110883355 0.08317195
0.06311129 0.06157817 -0.067854956 0.059698954 0.06662169 0.027205512 -0.080663115 -0.013621241
-0.08589734 0.078080446 0.00063087046 -0.107069746 0.06736463 -0.004675165 0.019770458 0.08678605
-0.06341608 -0.106558695 -0.032870874 -0.058071986 0.100584224 -0.0068945736 0.03342758 0.018589124
00000000: c0db d63d 604b 663d 224a d03d c041 cebc
00000010: 987d 6dbd bc98 913d 8e16 e9bd d031 893c
00000020: 90f2 a33c f035 1bbd c844 70bd ce94 973d
00000030: b8c1 e0bc a49b bf3d 387c e5bd 74b2 0c3d
00000040: c028 9ebb cceb 9a3d 08d6 a73c 28bd 41bd
00000050: 8879 95bc 78c9 523d b83a 523d 404e 573b
00000060: 649a 45bd 80d6 68bd 60a8 82bc 0251 9a3d
00000070: 605e e13c c4eb f3bd ca71 da3d 76e0 f0bd
00000080: 5488 273d 8a99 973d c899 d63c da09 da3d
00000090: 0856 c4bd faf7 c3bd 7cad a53d 2280 8b3d
000000a0: 80ba 89ba b0eb d03d 906e febc 20f4 e43b
000000b0: 545a 98bd 30e3 173d eac8 da3d 90fd b4bc
000000c0: 8435 2f3d 123e ffbd fcb2 e63d 421e bbbd
000000d0: 001c 1f39 8016 1bbb e02e 0fbd 6244 b0bd
000000e0: f099 22bd d294 fbbd 28bf e93d 3807 62bd
000000f0: b8ca 88bc a087 c83c 0082 b6bd 2acf d1bd
00000100: a2a1 bf3d b09c f1bd 003d 103a 98b4 44bd
00000110: e0a2 f03b 7256 853d ac02 a3bd fe0d 853d
00000120: c647 e63d c4fd e9bd 7066 11bc 088c 253d
00000130: bace bfbd d09e 9b3c 0817 0d3d 7e9a d5bd
00000140: 743f 73bd 0849 193d 18d1 b63c bcb6 66bd
00000150: 40d3 f0bd 8e18 b23d 482f 2bbd e660 e9bd
00000160: 64ba 6a3d a04b b3bd e4b5 08bd 0476 bc3d
00000170: 1e75 893d 1685 f8bd 784a b23d 2845 c5bc
00000180: e8f9 1bbd da1c d83d eabe a83d 5c85 48bd
00000190: 3c06 563d dc95 edbd 6865 f73c 3abf fb3d
000001a0: 6003 d23b c631 a5bd a477 593d c8db ee3c
000001b0: a0d5 85bb c865 a4bd c099 85bc 085a 6bbd
000001c0: 80fa 0f3b 7213 bb3d 92ee babd 600d c53b
000001d0: 90ff d9bc b0ec dc3d 9e78 fabd 148c 10bd
000001e0: 64a8 f73d 8098 833b ee57 82bd ca7c c13d
000001f0: 2850 8fbc 2a22 ab3d 00b7 03bd ec6e fc3d
00000200: b283 efbd 1a6a f4bd d0fb 6d3d c0cc 433b
00000210: 180e 503d f8d5 c5bc 0000 f73c 6038 acbc
00000220: 10b6 f93c 4caf 06bd 9eee 8ebd f00f 903c
00000230: f429 c53d 42dd ec3d 00bd da3b 8ccf a4bd
00000240: dca4 59bd 1c6b 253d b085 53bc 6059 f53b
00000250: e2ca a23d 9ac8 a6bd 68b1 d9bd c6e4 f9bd
00000260: 0061 b83b b0a8 6f3d 569c 9bbd 0086 043c
00000270: d461 63bd 2601 e83d a01d 97bb 1669 e73d
00000280: 5087 a33d 0048 c3b9 f4ed 383d a4d9 683d
00000290: a075 853c 90f9 3a3c 18de f1bc d8b0 82bd
000002a0: 140f 7dbd 1655 d13d 288f f33d 6036 75bc
000002b0: c249 883d 6821 e03d d88b de3c 44c2 38bd
000002c0: 80ca 8bbb 8c90 37bd 3496 73bd c29a f23d
000002d0: 16dd 89bd 3851 2e3d a052 df3d a8b9 01bd
000002e0: 6041 d4bd e01c 883c de03 edbd b009 b5bd
000002f0: 6058 91bb fc3a 8dbd c842 813d 3094 803c
00000300: 1047 5e3c 0a8d c03d e6ec aabd 08a1 6dbd
00000310: e47a 5b3d 7aee 863d 1496 aebd 5447 8b3d
00000320: 2015 45bd 62ad e5bd ae51 d83d c0b6 b6bc
00000330: 7eb2 943d 4035 98bb d429 4ebd 9c70 973d
00000340: d20f cdbd bc3d 8fbd d21f a1bd f4fd 6dbd
00000350: 0053 c5bd f0ca 7fbc d01d 9f3c 3edb f33d
00000360: 60c3 ed3c 2c28 373d 9e35 fc3d 8a18 c4bd
00000370: 4451 1c3d 0a72 963d e065 be3b 00c4 983d
00000380: a88c 8dbd 6e8a f8bd a0b5 7dbc 1826 00bd
00000390: d0d1 8abd 307d 443c d016 e3bd 0e56 aa3d
000003a0: 7e40 813d 6439 7c3d 8af7 8abd e486 743d
000003b0: f470 883d 18de de3c b432 a5bd a02b 5fbc
000003c0: f2ea afbd a4e8 9f3d 0061 253a 6247 dbbd
000003d0: 78f6 893d 2032 99bb a8f5 a13c e2bc b13d
000003e0: 4ae0 81bd 723b dabd 9ca3 06bd e4dc 6dbd
000003f0: 1aff cd3d e0eb e1bb 5ceb 083d 3848 983c

arith.constant4 f4 [64, 64]
-0.07332753 -0.07745361 0.11772765 -0.11621189 -0.11178507 -0.09273718 0.0033304542 -0.051612362
0.059766904 -0.008692607 0.012757108 0.06667958 0.09278509 -0.122335374 -0.011650458 0.09350924
0.0037841946 -0.08150664 0.04103121 0.006599158 0.04768388 -0.10544303 -0.115541145 -0.06806679
-0.049592033 0.016795412 0.028806835 0.11337426 -0.061086908 0.058897734 -0.07014835 0.06985006
-0.09912062 0.07953733 -0.11952275 -0.08030772 -0.07162325 0.107150525 0.101453155 0.021309197
0.008480921 0.117895156 -0.070855156 -0.11949788 0.09836027 0.06517607 0.10879305 0.120051086
-0.087898925 -0.010386348 -0.013344914 -0.12108225 -0.08206211 -0.108991474 0.0069904774 0.074921295
-0.097005635 0.03790082 -0.010192975 0.051908255 -0.08951117 0.0855549 0.058771506 -0.12261726
0.030360207 -0.08299132 -0.08621566 0.05720666 0.018653363 0.08243728 0.058289513 0.09912425
0.11001338 0.053645685 -0.0737613 0.108664826 0.056124628 -0.023884863 -0.10393946 -0.10658857
0.050631925 -0.115373015 0.09248462 -0.033228755 0.10599914 -0.108599156 -0.05886452 -0.04982236
0.0642768 -0.1104179 0.049374953 0.059657335 0.12187889 0.014167979 0.02839996 -0.1079258
-0.08586392 -0.07670592 -0.10867673 0.096006885 -0.103470966 0.010330975 0.06862682 0.12027915
0.085803375 0.04157874 -0.056547776 0.0046458244 -0.03171754 0.017100275 0.013696328 0.037321404
0.0030596405 -0.047183663 0.024618298 0.036220774 0.06962761 -0.065276474 -0.02752304 -0.03499718
-0.081520274 0.0017988682 -0.013414949 -0.10959832 -0.06920573 0.030404612 0.015258446 0.012552306
-0.10637903 0.073489785 0.08793183 -0.005787611 0.014369935 -0.124933854 0.087620065 -0.11616616
-0.00010043383 -0.1143979 0.0783395 -0.059490338 -0.022741154 0.11184734 -0.101738214 -0.0003556013
0.046352893 -0.030220121 0.027732164 -0.06361635 -0.06716739 -0.07458347 0.029191747 -0.096571326
0.034908116 0.056659386 -0.01797977 0.0006816536 -0.098632365 -0.034142435 -0.11099921 0.058625683
0.0042799115 -0.005534813 0.037082314 -0.06742281 -0.09861997 0.029748917 -0.013204873 -0.013975859
0.05856563 0.104509324 -0.02297458 -0.05332814 -0.064909026 0.0017094016 -0.06289482 -0.11970851
-0.073829696 -0.12097636 0.025758311 -0.08579826 -0.04492189 -0.1131459 0.12433055 0.018640503
0.045163855 0.11009173 0.03908427 -0.08544673 -0.058676302 -0.036527112 -0.008480236 0.101197824
-0.02662237 0.047656775 -0.1095078 5.955994e-05 -0.11934076 -0.114951864 -0.036419705 -0.062469527
0.10690838 -0.05231084 -0.00081913173 0.1031114 -0.016040653 -0.0884217 -0.07401827 -0.09881613
-0.12364434 -0.072493345 -0.016016811 0.02466333 0.0917359 -0.064236 0.04980962 0.06369142
-0.102487475 0.0035788566 -0.046434402 0.07712616 -0.09168458 -0.11248596 0.059642524 -0.035090044
0.00087592006 0.052944824 -0.04673469 0.06003335 0.09867452 0.019441277 -0.04289587 0.06815708
-0.0008084476 0.060915872 -0.10952437 -0.052661523 -0.120516255 -0.11709978 -0.10278873 0.036850467
0.089870185 -0.059936732 0.04790698 -0.012788102 -0.007318139 -0.04222727 0.059980407 -0.0351059
-0.12304933 0.0545142 -0.100505814 -0.109020025 -0.12037054 0.09357999 -0.08917482 -0.094673544
00000000: be2c 96bd 00a0 9ebd 321b f13d 8000 eebd
00000010: 92ef e4bd feec bdbd c043 5a3b 7c67 53bd
00000020: 24ce 743d 706b 0ebc 3003 513c 4e8f 883d
00000030: 1c06 be3d f88a fabd 90e1 3ebc c681 bf3d
00000040: 4000 783b f4ec a6bd 5810 283d c03d d83b
00000050: 2c50 433d 84f2 d7bd d6a0 ecbd 9a66 8bbd
00000060: 0421 4bbd 8896 893c 50fc eb3c c430 e83d
00000070: 4436 7abd c03e 713d f0a9 8fbd 8c0d 8f3d
00000080: c0ff cabd 78e4 a23d 58c8 f4bd 6078 a4bd
00000090: 36af 92bd bc71 db3d acc6 cf3d a090 ae3c
000000a0: 90f3 0a3c 0473 f13d 821c 91bd 4ebb f4bd
000000b0: 1c71 c93d 087b 853d e4ce de3d 58dd f53d
000000c0: 5a04 b4bd 802b 2abc a0a4 5abc f8f9 f7bd
000000d0: 2e10 a8bd ec36 dfbd 6010 e53b 5670 993d
000000e0: e4aa c6bd e43d 1b3d 7000 27bc c09d 543d
000000f0: a251 b7bd 6837 af3d 64ba 703d c21e fbbd
00000100: f8b5 f83c 5af7 a9bd d691 b0bd 8851 6a3d
00000110: f0ce 983c e0d4 a83d fcc0 6e3d a801 cb3d
00000120: b24e e13d 94bb 5b3d 2a10 97bd aa8b de3d
00000130: f0e2 653d 30aa c3bc 36de d4bd 1c4b dabd
00000140: 6c63 4f3d b048 ecbd 9468 bd3d e01a 08bd
00000150: 1416 d93d 3c69 debd ec1b 71bd 8812 4cbd
00000160: 8ea3 833d c822 e2bd 643d 4a3d 405b 743d
00000170: a49b f93d d020 683c 08a7 e83c 3408 ddbd
00000180: 6cd9 afbd fe17 9dbd e891 debd 429f c43d
00000190: 96e8 d3bd 4043 293c 388c 8c3d ea54 f63d
000001a0: aeb9 af3d 784e 2a3d a49e 67bd 003c 983b
000001b0: 40ea 01bd e015 8c3c 9066 603c 54de 183d
000001c0: 4084 483b a843 41bd 50ac c93c 3c5c 143d
000001d0: ec98 8e3d acaf 85bd 0078 e1bc 3459 0fbd
000001e0: 1af4 a6bd 00c8 eb3a 60ca 5bbc 1675 e0bd
000001f0: bcbb 8dbd 1813 f93c 90fe 793c 30a8 4d3c
00000200: 40dd d9bd d081 963d 9a15 b43d 00a6 bdbb
00000210: e06f 6b3c 52dd ffbd 2672 b33d 86e8 edbd
00000220: 00a0 d2b8 7249 eabd 7670 a03d 24ac 73bd
00000230: a84b babc 3810 e53d 205c d0bd 0070 bab9
00000240: 88dc 3d3d 3090 f7bc 902e e33c 4a49 82bd
00000250: 0e8f 89bd 38bf 98bd 8823 ef3c 30c7 c5bd
00000260: d0fb 0e3d ac13 683d 504a 93bc 00b1 323a
00000270: c4ff c9bd f0d8 0bbd 8e53 e3bd 7c21 703d
00000280: 803e 8c3b 605d b5bb a0e3 173d f814 8abd
00000290: 44f9 c9bd 00b4 f33c 4059 58bc 00fb 64bc
000002a0: 84e2 6f3d fc08 d63d 3035 bcbc 9c6e 5abd
000002b0: 06ef 84bd 000e e03a 00cf 80bd bc29 f5bd
000002c0: 0634 97bd 74c2 f7bd 1803 d33c 00b7 afbd
000002d0: 0400 38bd 0ab9 e7bd 04a1 fe3d f8b3 983c
000002e0: bcfd 383d c677 e13d d416 203d b2fe aebd
000002f0: 9056 70bd 749d 15bd b0f0 0abc ce40 cf3d
00000300: 2817 dabc c033 433d a045 e0bd 00d0 7938
00000310: ee68 f4bd e26b ebbd d42c 15bd 0ce0 7fbd
00000320: c8f2 da3d e443 56bd 00bb 56ba 122c d33d
00000330: b067 83bc 7016 b5bd e496 97bd 1c60 cabd
00000340: 3e39 fdbd 6477 94bd b035 83bc c00a ca3c
00000350: 08e0 bb3d 2a8e 83bd 2c05 4c3d a670 823d
00000360: f4e4 d1bd 408b 6a3b 0032 3ebd 52f4 9d3d
00000370: 20c5 bbbd 0a5f e6bd b84b 743d 94ba 0fbd
00000380: 009e 653a acdc 583d e06c 3fbd 88e5 753d
00000390: de15 ca3d 5043 9f3c 94b3 2fbd f095 8b3d
000003a0: 00ee 53ba ec82 793d 504e e0bd 9cb3 57bd
000003b0: 3ad1 f6bd 02d2 efbd e682 d2bd 84f0 163d
000003c0: dc0d b83d 3880 75bd 1c3a 443d 3085 51bc
000003d0: 00cd efbb 80f6 2cbd 04ae 753d 34cb 0fbd
000003e0: 4a01 fcbd 484a 5f3d fed5 cdbd e445 dfbd
000003f0: d484 f6bd dea6 bf3d 4aa1 b6bd 34e4 c1bd

arith.constant5 f4 [192, 64]
-0.1329688 0.027320651 -0.02579766 0.023991045 0.006770667 -0.1479799 -0.0021775498 0.044142354
-0.057330586 0.09527525 -0.0077976566 0.14603628 0.0067369775 0.029625878 0.08834269 -0.0056745284
0.107880406 -0.072237045 0.14144817 0.086415365 -0.06382152 0.07762425 -0.09487025 0.091077745
0.026872976 -0.0011770233 -0.02968353 0.008130228 0.12307855 0.13587317 -0.038512193 0.09660019
0.005796239 0.033686038 -0.0044101602 0.06932188 0.07319308 -0.006719585 0.05789391 0.089521535
-0.010372858 0.11588575 -0.1517946 0.05446924 -0.067097045 0.0621759 0.05556954 -0.052957162
0.11523424 0.00399017 -0.09843681 -0.07540007 0.09491941 0.09949181 0.037409153 0.055587843
-0.07420432 0.06900469 -0.0784455 0.034657873 0.0028273636 -0.11055909 0.1503003 -0.025451291
-0.09190716 -0.011311607 -0.1035632 0.056810528 -0.014581044 -0.060798526 0.012361026 0.10366673
0.026985068 -0.06649404 0.025900116 0.037624925 -0.04397153 -0.10630546 -0.14489275 -0.031051433
-0.031160422 -0.021735694 -0.0031641696 -0.05386757 -0.11937758 -0.025313156 0.0005280125 0.001607635
0.081947245 0.04761747 0.041626044 0.06569113 0.05009934 -0.023652049 -0.00612089 0.089811765
-0.15265736 -0.12932375 0.048165392 -0.02188447 0.111139715 0.09516029 -0.14471227 0.062211562
-0.023739211 -0.09593939 0.11301594 0.0049213823 0.113004275 0.022999989 -0.04691703 0.13518041
-0.051882487 0.05143136 -0.12572359 -0.13374373 0.08304541 0.13520798 0.1459916 -0.015724158
-0.08399202 -0.078644425 -0.038692795 0.06949807 -0.14317341 -0.10397605 -0.04422444 -0.1343327
0.06762685 -0.077991344 0.010134329 0.10039507 0.091143824 0.025445031 -0.073294625 0.0028191693
0.0041795517 -0.080341235 0.057242345 0.035218373 0.09300151 -0.119980425 -0.04472424 -0.07783626
-0.0517478 0.10334617 0.086831264 -0.11770648 0.11191933 0.035361435 -0.043368712 -0.035520796
-0.014158152 0.056803413 0.004763446 0.11665826 0.049024772 -0.047283784 0.00596695 -0.0118268635
0.1505059 -0.060761992 0.14391533 0.03509542 -0.009641466 -0.134801 0.061365195 0.01250533
0.097758256 -0.13393362 0.026047759 -0.05301666 -0.11010937 -0.14358693 0.07804595 -0.13804507
0.069936745 0.12068864 0.08014942 -0.00697266 0.11549613 0.044790488 0.04480695 -0.0051623937
0.007852571 -0.095651716 -0.06876102 0.0057928623 -0.07340102 -0.045735806 -0.12513995 0.036178276
-0.048781388 0.14981282 -0.01658102 0.020622656 -0.12609696 -0.0749283 -0.086147726 -0.09700425
-0.096776724 0.026647167 -0.101068825 0.036673766 0.085306436 -0.038104814 -0.042617116 0.08114179
-0.106626116 -0.10564727 -0.046015527 0.05420518 -0.025532996 -0.12281156 0.104466066 0.13733836
-0.1115527 0.0039197793 -0.13092256 -0.01019866 -0.027025746 0.14596604 -0.034096356 -0.1373453
-0.035131007 -0.04639469 0.1402985 -0.054484278 0.008842093 0.090403765 0.12256365 0.084061466
0.09532204 -0.050409738 0.046282947 0.02746917 0.019942474 0.12202593 0.1247265 -0.054857146
0.03796823 -0.049579885 -0.04672867 0.12737061 -0.12198722 -0.0041455333 -0.09210043 0.12766004
0.122957654 -0.12402624 0.034338992 0.15278372 0.10768767 0.09266034 0.07609324 -0.05350817
00000000: f928 08be 8fcf df3c 9d55 d3bc de88 c43c
00000010: 79dc dd3b 0b88 17be 39b5 0ebb 9dce 343d
00000020: 7ad3 6abd ac1f c33d 7c83 ffbb 898a 153e
00000030: ddc1 dc3b f8b1 f23c 03ed b43d 65f1 b9bb
00000040: 67f0 dc3d 04f1 93bd cad7 103e 8afa b03d
00000050: dbb4 82bd 76f9 9e3d 554b c2bd f886 ba3d
00000060: b724 dc3c 5946 9aba e02a f3bc a634 053c
00000070: 9b10 fc3d 5622 0b3e f6be 1dbd 52d6 c53d
00000080: 60ee bd3b 5ffa 093d 1b83 90bb a1f8 8d3d
00000090: 41e6 953d f72f dcbb 2a22 6d3d 1157 b73d
000000a0: ebf2 29bc 8255 ed3d 0b70 1bbe 231b 5f3d
000000b0: 2d6a 89bd 28ac 7e3d e39c 633d 9ce9 58bd
000000c0: eeff eb3d f9bf 823b 3d99 c9bd 5a6b 9abd
000000d0: 1c65 c23d 5dc2 cb3d 573a 193d 14b0 633d
000000e0: 6ff8 97bd 5552 8d3d 09a8 a0bd 6af5 0d3d
000000f0: 4a4b 393b ce6c e2bd 52e8 193e 3a7f d0bc
00000100: d239 bcbd 5254 39bc f118 d4bd 28b2 683d
00000110: 55e5 6ebc e007 79bd e785 4a3c 394f d43d
00000120: ca0f dd3c 072e 88bd 7b2c d43c 981c 1a3d
00000130: 7e1b 34bd adb6 d9bd c45e 14be 935f febc
00000140: 2444 ffbc 0e0f b2bc f55d 4fbb 3ea4 5cbd
00000150: 3c7c f4bd 895d cfbc 526a 0a3a 47b7 d23a
00000160: f5d3 a73d 890a 433d 1280 2a3d 1289 863d
00000170: f734 4d3d f1c1 c1bc bf91 c8bb 3bef b73d
00000180: 3652 1cbe 726d 04be 1349 453d 0f47 b3bc
00000190: 389d e33d 66e3 c23d 742f 14be 8dd1 7e3d
000001a0: bc78 c2bc df7b c4bd e774 e73d 8c43 a13b
000001b0: c96e e73d 796a bc3c 122c 40bd bc6c 0a3e
000001c0: bb82 54bd b1a9 523d afbd 00be 1ef4 08be
000001d0: b613 aa3d f673 0a3e d27e 153e f3cf 80bc
000001e0: 0204 acbd 5410 a1bd 567c 1ebd 0155 8e3d
000001f0: 0d9c 12be 65f1 d4bd b024 35bd 838e 09be
00000200: f27f 8a3d edb9 9fbd 750a 263c ee9b cd3d
00000210: 9da9 ba3d 1972 d03c 7e1b 96bd d0c1 383b
00000220: 9ff4 883b f289 a4bd f376 6a3d 2441 103d
00000230: 9377 be3d 4cb8 f5bd c430 37bd 9e68 9fbd
00000240: 80f5 53bd 28a7 d33d 97d4 b13d 1810 f1bd
00000250: f635 e53d 27d7 103d 64a3 31bd 417e 11bd
00000260: 98f7 67bc b2aa 683d ae16 9c3b 87ea ee3d
00000270: 33ce 483d a4ac 41bd 6886 c33b 76c5 41bc
00000280: 381e 1a3e 91e1 78bd 8a5e 133e 37c0 0f3d
00000290: 3df7 1dbc 4609 0abe 125a 7b3d 28e3 4c3c
000002a0: 7b35 c83d e525 09be 1c62 d53c ff27 59bd
000002b0: 0581 e1bd 7408 13be 8ed6 9f3d b05b 0dbe
000002c0: ff3a 8f3d 9b2b f73d 6125 a43d e97a e4bb
000002d0: 3c89 ec3d 3b76 373d 7e87 373d 4c29 a9bb
000002e0: 12a8 003c 0ce5 c3bd 94d2 8cbd 0dd2 bd3b
000002f0: 4653 96bd 7855 3bbd b024 00be ac2f 143d
00000300: fece 47bd 8868 193e ebd4 87bc d8f0 a83c
00000310: 901f 01be 0274 99bd 386e b0bd 2aaa c6bd
00000320: e032 c6bd 294b da3c 2cfd cebd 3b37 163d
00000330: 24b5 ae3d cb13 1cbd 498f 2ebd ab2d a63d
00000340: cb5e dabd 995d d8bd c77a 3cbd 4006 5e3d
00000350: 932a d1bc a184 fbbd 4ef2 d53d 6da2 0c3e
00000360: be75 e4bd 7e71 803b 9010 06be 4818 27bc
00000370: 1965 ddbc 1f78 153e 9fa8 0bbd 3fa4 0cbe
00000380: 88e5 0fbd 5c08 3ebd 69aa 0f3e e82a 5fbd
00000390: 6dde 103c 9c25 b93d a702 fb3d 6b28 ac3d
000003a0: 3438 c33d 717a 4ebd 3093 3d3d 0607 e13c
000003b0: 665e a33c bbe8 f93d 9b70 ff3d e3b1 60bd
000003c0: 9384 1b3d 4714 4bbd 9066 3fbd 716d 023e
000003d0: 70d4 f9bd 41d7 87bb 269f bcbd 50b9 023e
000003e0: 39d1 fb3d 7801 febd 0ba7 0c3d 5673 1c3e
000003f0: 5a8b dc3d b4c4 bd3d c6d6 9b3d 622b 5bbd

arith.constant6 f4 [64, 11]
0.004478564 0.055245508 0.13309342 -0.03576439 0.26063475 -0.12093072 -0.09003706 0.029669112
-0.2907662 -0.17061333 -0.14016889 0.25399885 0.041515082 -0.032991353 -0.06462708 -0.04879601
-0.048665933 0.29229215 -0.08418368 0.07260236 -0.08437677 -0.18522209 -0.01905602 0.14567848
0.25073397 -0.0007146178 -0.12730484 0.09914289 -0.05110671 -0.17639884 -0.039177388 -0.11888078
0.022014808 -0.15678892 -0.052420784 -0.1529886 0.046625737 0.19231942 -0.28080073 -0.113582216
0.20986561 0.26314515 -0.19867903 -0.21873297 -0.24853387 0.03810492 0.120854296 0.057082083
-0.15694268 0.25208014 0.29586974 -0.05125753 0.2814404 -0.25396585 -0.16353188 0.300177
0.17824146 0.17115894 0.16720526 0.09125833 -0.2313292 0.25497484 -0.09982045 0.052937213
-0.13919258 -0.23902625 -0.123340905 0.20468013 0.074426785 0.06085444 -0.024732526 -0.24675484
-0.16244662 0.121290326 -0.18094212 -0.14167242 0.10170918 -0.27716646 -0.21421239 0.20630673
-0.08694277 -0.25670025 -0.043001216 0.19336562 -0.24372259 -0.19632904 0.0401527 -0.24779956
-0.11977123 0.12954634 0.07942771 -0.20023589 0.24430123 0.10162536 -0.14484529 0.12957151
0.24421583 0.04792249 -0.19089659 -0.1991749 0.08348506 0.17053196 -0.15166521 0.124790914
-0.0007571743 0.11021184 0.22616184 -0.2507705 0.03535608 0.15445143 -0.095556825 -0.014403276
-0.07314599 0.12933248 -0.03388346 -0.19076934 -0.2982251 0.012471558 0.1407576 -0.0126618035
0.10187085 -0.24987625 0.1551695 -0.038509496 0.08376379 -0.13119175 0.036657967 0.007846382
0.13952936 0.057900865 -0.17644435 -0.22128524 -0.037340343 0.05320204 0.06990211 -0.0027611735
0.14955395 0.032803264 -0.17061023 0.10248763 -0.29823828 -0.11698583 0.18815316 0.16376936
-0.17732984 -0.22803791 -0.013922934 -0.0459393 -0.16352293 0.015645824 -0.048977736 0.3003646
-0.27425492 0.20545135 -0.0538883 -0.22637534 -0.0352352 -0.06263599 0.22150995 -0.13919142
-0.23239467 0.2868325 0.13057373 -0.21637145 0.2339129 0.07511628 -0.032660246 -0.07555417
-0.23026519 -0.28223103 0.27422708 0.11723732 0.2574416 -0.09650949 0.13797677 0.027943633
-0.22563897 -0.056363977 0.27325472 -0.18354675 0.05673757 0.04736512 -0.22609016 0.1181116
0.2372256 -0.2249989 0.27371418 0.23934852 -0.054482795 0.03487027 -0.20691797 0.120980605
-0.1811117 0.10184206 0.13604493 -0.23267494 0.24504979 0.03967092 -0.104079075 -0.056136675
0.024261925 -0.29829067 -0.029041115 -0.029558226 0.10311304 -0.016033253 -0.28863263 0.22163856
-0.22073203 0.09805935 0.27680585 -0.05010498 0.08816321 -0.21743812 -0.29910177 0.021629283
0.2846806 0.23207568 0.0033067157 0.18846932 -0.21197343 -0.08451623 0.029242396 -0.16022499
-0.26510042 -0.10374078 -0.110761195 -0.06758023 -0.2110178 0.043785598 -0.106989376 -0.22914766
-0.2282815 -0.10886301 0.21892342 0.033038583 0.2701339 -0.09362862 0.14537595 0.1449534
-0.14438468 -0.08496932 -0.3004878 0.07463241 -0.023137772 -0.12421856 0.22718322 -0.15557483
-0.197248 0.28556076 0.086666405 0.011730594 -0.15970856 -0.22113468 0.114177324 -0.05431753
00000000: ebc0 923b 1d49 623d a449 083e ae7d 12bd
00000010: eb71 853e 86aa f7bd 5a65 b8bd a30c f33c
00000020: 4fdf 94be 43b5 2ebe 6f88 0fbe 230c 823e
00000030: b80b 2a3d f121 07bd 345b 84bd 53de 47bd
00000040: ee55 47bd 51a7 953e 7e68 acbd 8cb0 943d
00000050: bacd acbd dcaa 3dbe 5f1b 9cbc bd2c 153e
00000060: 3460 803e 3055 3bba 335c 02be 6d0b cb3d
00000070: 4555 51bd e6a1 34be 7878 20bd c477 f3bd
00000080: 6658 b43c 468d 20be 2db7 56bd 0ba9 1cbe
00000090: a1fa 3e3d 62ef 443e 1dc5 8fbe cb9d e8bd
000000a0: 03e7 563e f6ba 863e 8472 4bbe 89fb 5fbe
000000b0: aa7f 7ebe e813 1c3d 7582 f73d e7ce 693d
000000c0: 95b5 20be a610 813e 3d7c 973e 6af3 51bd
000000d0: f518 903e d007 82be e774 27be cdb0 993e
000000e0: ee84 363e 4a44 2f3e db37 2b3e a6e5 ba3d
000000f0: 90e1 6cbe 108c 823e aa6e ccbd b1d4 583d
00000100: 8088 0ebe 4cc3 74be 289a fcbd ab97 513e
00000110: 126d 983d 8142 793d de9b cabc 4dad 7cbe
00000120: 6858 26be 1067 f83d e448 39be 9312 11be
00000130: e74c d03d c3e8 8dbe 7e5a 5bbe 1242 533e
00000140: 0d0f b2bd 376e 83be 0b22 30bd a301 463e
00000150: 6a92 79be 7b0a 49be 2877 243d 2bbf 7dbe
00000160: 9e4a f5bd cca7 043e ffaa a23d a30a 4dbe
00000170: 1a2a 7a3e f520 d03d 5352 14be 65ae 043e
00000180: b713 7a3e 5f4a 443d 657a 43be 81f4 4bbe
00000190: 37fa aa3d ee9f 2e3e 204e 1bbe 6192 ff3d
000001a0: 1b7d 46ba bfb6 e13d f896 673e fe64 80be
000001b0: 89d1 103d 8428 1e3e 4cb3 c3bd b8fb 6bbc
000001c0: 91cd 95bd bc6f 043e 62c9 0abd 0a59 43be
000001d0: f6b0 98be 8155 4c3c c322 103e 7473 4fbc
000001e0: aaa1 d03d 8fdf 7fbe c1e4 1e3e 22bc 1dbd
000001f0: 5a8c ab3d 2157 06be aa26 163d 1d8e 003c
00000200: c9e0 0e3e 7529 6d3d d4ad 34be 9998 62be
00000210: 30f2 18bd 62ea 593d d628 8f3d cef4 34bb
00000220: ac24 193e b75c 063d 73b4 2ebe 09e5 d13d
00000230: b0b2 98be 4496 efbd 39ab 403e 28b3 273e
00000240: f495 35be c582 69be 051d 64bc d92a 3cbd
00000250: 8e72 27be ac2b 803c e19c 48bd 64c9 993e
00000260: 246b 8cbe d761 523e fab9 5cbd f0ce 67be
00000270: c952 10bd 4c47 80bd 81d3 623e 3288 0ebe
00000280: def8 6dbe b6db 923e 1fb5 053e 7a90 5dbe
00000290: dd86 6f3e 90d6 993d c0c6 05bd 25bc 9abd
000002a0: a3ca 6bbe 9680 90be 7e67 8c3e 1f1a f03d
000002b0: 63cf 833e c4a6 c5bd c849 0d3e 0cea e43c
000002c0: e70d 67be eadd 66bd 0be8 8b3e aef3 3bbe
000002d0: a765 683d ee01 423d 2e84 67be 7fe4 f13d
000002e0: 45eb 723e 1d66 66be 4424 8c3e c717 753e
000002f0: 5a29 5fbd 21d4 0e3d 4ee2 53be aec4 f73d
00000300: 5875 39be 9292 d03d 5d4f 0b3e 5742 6ebe
00000310: 55ee 7a3e fa7d 223d 6927 d5bd 92ef 65bd
00000320: f2c0 c63c 8eb9 98be a2e7 edbc 1824 f2bc
00000330: ee2c d33d 2b58 83bc a8c7 93be 38f5 623e
00000340: 9407 62be 57d3 c83d 7fb9 8d3e e13a 4dbd
00000350: ea8e b43d 19a8 5ebe de23 99be e52f b13c
00000360: a8c1 913e 3fa5 6d3e 7cb5 583b 1afe 403e
00000370: 900f 59be d816 adbd c08d ef3c 0512 24be
00000380: 3ebb 87be 0c76 d4bd c4d6 e2bd 8167 8abd
00000390: 0d15 58be 8758 333d 3f1d dbbd afa5 6abe
000003a0: a0c2 69be 92f3 debd 762d 603e 7753 073d
000003b0: fe4e 8a3e 5dc0 bfbd 6fdd 143e aa6e 143e
000003c0: 94d9 13be 6504 aebd 89d9 99be e1d8 983d
000003d0: 6d8b bdbc 4d66 febd b8a2 683e 024f 1fbe
000003e0: 61fb 49be 0535 923e 287e b13d ad31 403c
000003f0: a48a 23be 2171 62be cdd5 e93d 0f7c 5ebd

arith.constant33 f4 [1, 4, 10, 10]
-3.4028235e+38 -3.4028235e+38 -3.4028235e+38 -3.4028235e+38 -3.4028235e+38 -3.4028235e+38 -3.4028235e+38 -3.4028235e+38
-3.4028235e+38 -3.4028235e+38 -3.4028235e+38 -3.4028235e+38 -3.4028235e+38 -3.4028235e+38 -3.4028235e+38 -3.4028235e+38
-3.4028235e+38 -3.4028235e+38 -3.4028235e+38 -3.4028235e+38 -3.4028235e+38 -3.4028235e+38 -3.4028235e+38 -3.4028235e+38
-3.4028235e+38 -3.4028235e+38 -3.4028235e+38 -3.4028235e+38 -3.4028235e+38 -3.4028235e+38 -3.4028235e+38 -3.4028235e+38
-3.4028235e+38 -3.4028235e+38 -3.4028235e+38 -3.4028235e+38 -3.4028235e+38 -3.4028235e+38 -3.4028235e+38 -3.4028235e+38
-3.4028235e+38 -3.4028235e+38 -3.4028235e+38 -3.4028235e+38 -3.4028235e+38 -3.4028235e+38 -3.4028235e+38 -3.4028235e+38
-3.4028235e+38 -3.4028235e+38 -3.4028235e+38 -3.4028235e+38 -3.4028235e+38 -3.4028235e+38 -3.4028235e+38 -3.4028235e+38
-3.4028235e+38 -3.4028235e+38 -3.4028235e+38 -3.4028235e+38 -3.4028235e+38 -3.4028235e+38 -3.4028235e+38 -3.4028235e+38
-3.4028235e+38 -3.4028235e+38 -3.4028235e+38 -3.4028235e+38 -3.4028235e+38 -3.4028235e+38 -3.4028235e+38 -3.4028235e+38
-3.4028235e+38 -3.4028235e+38 -3.4028235e+38 -3.4028235e+38 -3.4028235e+38 -3.4028235e+38 -3.4028235e+38 -3.4028235e+38
-3.4028235e+38 -3.4028235e+38 -3.4028235e+38 -3.4028235e+38 -3.4028235e+38 -3.4028235e+38 -3.4028235e+38 -3.4028235e+38
-3.4028235e+38 -3.4028235e+38 -3.4028235e+38 -3.4028235e+38 -3.4028235e+38 -3.4028235e+38 -3.4028235e+38 -3.4028235e+38
-3.4028235e+38 -3.4028235e+38 -3.4028235e+38 -3.4028235e+38 -3.4028235e+38 -3.4028235e+38 -3.4028235e+38 -3.4028235e+38
-3.4028235e+38 -3.4028235e+38 -3.4028235e+38 -3.4028235e+38 -3.4028235e+38 -3.4028235e+38 -3.4028235e+38 -3.4028235e+38
-3.4028235e+38 -3.4028235e+38 -3.4028235e+38 -3.4028235e+38 -3.4028235e+38 -3.4028235e+38 -3.4028235e+38 -3.4028235e+38
-3.4028235e+38 -3.4028235e+38 -3.4028235e+38 -3.4028235e+38 -3.4028235e+38 -3.4028235e+38 -3.4028235e+38 -3.4028235e+38
-3.4028235e+38 -3.4028235e+38 -3.4028235e+38 -3.4028235e+38 -3.4028235e+38 -3.4028235e+38 -3.4028235e+38 -3.4028235e+38
-3.4028235e+38 -3.4028235e+38 -3.4028235e+38 -3.4028235e+38 -3.4028235e+38 -3.4028235e+38 -3.4028235e+38 -3.4028235e+38
-3.4028235e+38 -3.4028235e+38 -3.4028235e+38 -3.4028235e+38 -3.4028235e+38 -3.4028235e+38 -3.4028235e+38 -3.4028235e+38
-3.4028235e+38 -3.4028235e+38 -3.4028235e+38 -3.4028235e+38 -3.4028235e+38 -3.4028235e+38 -3.4028235e+38 -3.4028235e+38
-3.4028235e+38 -3.4028235e+38 -3.4028235e+38 -3.4028235e+38 -3.4028235e+38 -3.4028235e+38 -3.4028235e+38 -3.4028235e+38
-3.4028235e+38 -3.4028235e+38 -3.4028235e+38 -3.4028235e+38 -3.4028235e+38 -3.4028235e+38 -3.4028235e+38 -3.4028235e+38
-3.4028235e+38 -3.4028235e+38 -3.4028235e+38 -3.4028235e+38 -3.4028235e+38 -3.4028235e+38 -3.4028235e+38 -3.4028235e+38
-3.4028235e+38 -3.4028235e+38 -3.4028235e+38 -3.4028235e+38 -3.4028235e+38 -3.4028235e+38 -3.4028235e+38 -3.4028235e+38
-3.4028235e+38 -3.4028235e+38 -3.4028235e+38 -3.4028235e+38 -3.4028235e+38 -3.4028235e+38 -3.4028235e+38 -3.4028235e+38
-3.4028235e+38 -3.4028235e+38 -3.4028235e+38 -3.4028235e+38 -3.4028235e+38 -3.4028235e+38 -3.4028235e+38 -3.4028235e+38
-3.4028235e+38 -3.4028235e+38 -3.4028235e+38 -3.4028235e+38 -3.4028235e+38 -3.4028235e+38 -3.4028235e+38 -3.4028235e+38
-3.4028235e+38 -3.4028235e+38 -3.4028235e+38 -3.4028235e+38 -3.4028235e+38 -3.4028235e+38 -3.4028235e+38 -3.4028235e+38
-3.4028235e+38 -3.4028235e+38 -3.4028235e+38 -3.4028235e+38 -3.4028235e+38 -3.4028235e+38 -3.4028235e+38 -3.4028235e+38
-3.4028235e+38 -3.4028235e+38 -3.4028235e+38 -3.4028235e+38 -3.4028235e+38 -3.4028235e+38 -3.4028235e+38 -3.4028235e+38
-3.4028235e+38 -3.4028235e+38 -3.4028235e+38 -3.4028235e+38 -3.4028235e+38 -3.4028235e+38 -3.4028235e+38 -3.4028235e+38
-3.4028235e+38 -3.4028235e+38 -3.4028235e+38 -3.4028235e+38 -3.4028235e+38 -3.4028235e+38 -3.4028235e+38 -3.4028235e+38
00000000: ffff 7fff ffff 7fff ffff 7fff ffff 7fff
00000010: ffff 7fff ffff 7fff ffff 7fff ffff 7fff
00000020: ffff 7fff ffff 7fff ffff 7fff ffff 7fff
00000030: ffff 7fff ffff 7fff ffff 7fff ffff 7fff
00000040: ffff 7fff ffff 7fff ffff 7fff ffff 7fff
00000050: ffff 7fff ffff 7fff ffff 7fff ffff 7fff
00000060: ffff 7fff ffff 7fff ffff 7fff ffff 7fff
00000070: ffff 7fff ffff 7fff ffff 7fff ffff 7fff
00000080: ffff 7fff ffff 7fff ffff 7fff ffff 7fff
00000090: ffff 7fff ffff 7fff ffff 7fff ffff 7fff
000000a0: ffff 7fff ffff 7fff ffff 7fff ffff 7fff
000000b0: ffff 7fff ffff 7fff ffff 7fff ffff 7fff
000000c0: ffff 7fff ffff 7fff ffff 7fff ffff 7fff
000000d0: ffff 7fff ffff 7fff ffff 7fff ffff 7fff
000000e0: ffff 7fff ffff 7fff ffff 7fff ffff 7fff
000000f0: ffff 7fff ffff 7fff ffff 7fff ffff 7fff
00000100: ffff 7fff ffff 7fff ffff 7fff ffff 7fff
00000110: ffff 7fff ffff 7fff ffff 7fff ffff 7fff
00000120: ffff 7fff ffff 7fff ffff 7fff ffff 7fff
00000130: ffff 7fff ffff 7fff ffff 7fff ffff 7fff
00000140: ffff 7fff ffff 7fff ffff 7fff ffff 7fff
00000150: ffff 7fff ffff 7fff ffff 7fff ffff 7fff
00000160: ffff 7fff ffff 7fff ffff 7fff ffff 7fff
00000170: ffff 7fff ffff 7fff ffff 7fff ffff 7fff
00000180: ffff 7fff ffff 7fff ffff 7fff ffff 7fff
00000190: ffff 7fff ffff 7fff ffff 7fff ffff 7fff
000001a0: ffff 7fff ffff 7fff ffff 7fff ffff 7fff
000001b0: ffff 7fff ffff 7fff ffff 7fff ffff 7fff
000001c0: ffff 7fff ffff 7fff ffff 7fff ffff 7fff
000001d0: ffff 7fff ffff 7fff ffff 7fff ffff 7fff
000001e0: ffff 7fff ffff 7fff ffff 7fff ffff 7fff
000001f0: ffff 7fff ffff 7fff ffff 7fff ffff 7fff
00000200: ffff 7fff ffff 7fff ffff 7fff ffff 7fff
00000210: ffff 7fff ffff 7fff ffff 7fff ffff 7fff
00000220: ffff 7fff ffff 7fff ffff 7fff ffff 7fff
00000230: ffff 7fff ffff 7fff ffff 7fff ffff 7fff
00000240: ffff 7fff ffff 7fff ffff 7fff ffff 7fff
00000250: ffff 7fff ffff 7fff ffff 7fff ffff 7fff
00000260: ffff 7fff ffff 7fff ffff 7fff ffff 7fff
00000270: ffff 7fff ffff 7fff ffff 7fff ffff 7fff
00000280: ffff 7fff ffff 7fff ffff 7fff ffff 7fff
00000290: ffff 7fff ffff 7fff ffff 7fff ffff 7fff
000002a0: ffff 7fff ffff 7fff ffff 7fff ffff 7fff
000002b0: ffff 7fff ffff 7fff ffff 7fff ffff 7fff
000002c0: ffff 7fff ffff 7fff ffff 7fff ffff 7fff
000002d0: ffff 7fff ffff 7fff ffff 7fff ffff 7fff
000002e0: ffff 7fff ffff 7fff ffff 7fff ffff 7fff
000002f0: ffff 7fff ffff 7fff ffff 7fff ffff 7fff
00000300: ffff 7fff ffff 7fff ffff 7fff ffff 7fff
00000310: ffff 7fff ffff 7fff ffff 7fff ffff 7fff
00000320: ffff 7fff ffff 7fff ffff 7fff ffff 7fff
00000330: ffff 7fff ffff 7fff ffff 7fff ffff 7fff
00000340: ffff 7fff ffff 7fff ffff 7fff ffff 7fff
00000350: ffff 7fff ffff 7fff ffff 7fff ffff 7fff
00000360: ffff 7fff ffff 7fff ffff 7fff ffff 7fff
00000370: ffff 7fff ffff 7fff ffff 7fff ffff 7fff
00000380: ffff 7fff ffff 7fff ffff 7fff ffff 7fff
00000390: ffff 7fff ffff 7fff ffff 7fff ffff 7fff
000003a0: ffff 7fff ffff 7fff ffff 7fff ffff 7fff
000003b0: ffff 7fff ffff 7fff ffff 7fff ffff 7fff
000003c0: ffff 7fff ffff 7fff ffff 7fff ffff 7fff
000003d0: ffff 7fff ffff 7fff ffff 7fff ffff 7fff
000003e0: ffff 7fff ffff 7fff ffff 7fff ffff 7fff
000003f0: ffff 7fff ffff 7fff ffff 7fff ffff 7fff

arith.constant34 f4 [1, 10]
0.0 0.0 0.0 0.0 0.0 0.0 0.0 0.0
0.0 0.0
00000000: 0000 0000 0000 0000 0000 0000 0000 0000
00000010: 0000 0000 0000 0000 0000 0000 0000 0000
00000020: 0000 0000 0000 0000

arith.constant35 f4 [1, 10]
-3.4028235e+38 -3.4028235e+38 -3.4028235e+38 -3.4028235e+38 -3.4028235e+38 -3.4028235e+38 -3.4028235e+38 -3.4028235e+38
-3.4028235e+38 -3.4028235e+38
00000000: ffff 7fff ffff 7fff ffff 7fff ffff 7fff
00000010: ffff 7fff ffff 7fff ffff 7fff ffff 7fff
00000020: ffff 7fff ffff 7fff

arith.constant36 f4 [1, 4, 1, 10]
0.0 0.0 0.0 0.0 0.0 0.0 0.0 0.0
0.0 0.0 0.0 0.0 0.0 0.0 0.0 0.0
0.0 0.0 0.0 0.0 0.0 0.0 0.0 0.0
0.0 0.0 0.0 0.0 0.0 0.0 0.0 0.0
0.0 0.0 0.0 0.0 0.0 0.0 0.0 0.0
00000000: 0000 0000 0000 0000 0000 0000 0000 0000
00000010: 0000 0000 0000 0000 0000 0000 0000 0000
00000020: 0000 0000 0000 0000 0000 0000 0000 0000
00000030: 0000 0000 0000 0000 0000 0000 0000 0000
00000040: 0000 0000 0000 0000 0000 0000 0000 0000
00000050: 0000 0000 0000 0000 0000 0000 0000 0000
00000060: 0000 0000 0000 0000 0000 0000 0000 0000
00000070: 0000 0000 0000 0000 0000 0000 0000 0000
00000080: 0000 0000 0000 0000 0000 0000 0000 0000
00000090: 0000 0000 0000 0000 0000 0000 0000 0000

arith.constant37 f4 [64]
0.036970507 -0.011611182 0.07936382 0.08202965 0.07809619 0.034404356 -0.033829484 -0.012351461
-0.022250049 -0.027589306 0.06291051 0.017274065 0.04558953 0.0190126 -0.061451875 -0.045307744
0.029324649 0.064158335 -0.08305418 -0.010535248 0.08148214 0.03900946 0.03832908 -0.044086687
0.005952768 -0.07295395 0.073494084 -0.066379756 -0.079665795 -0.009122896 0.022288496 0.039315633
0.064675316 -0.08225897 -0.035496064 0.01468412 0.08737676 0.0038860552 0.05534333 -0.01991053
0.04404054 0.004151949 0.00077176146 0.03799812 0.034813024 -0.043413844 0.06818833 -0.03265601
0.040610984 -0.0068913046 0.051398586 -0.04267087 -0.027665349 -0.042972885 0.07218542 -0.050833367
-0.0473894 -0.06264321 -0.024020648 0.012239697 -0.077649035 -0.0629878 0.050716955 0.065155685
00000000: 636e 173d d43c 3ebc 8089 a23d 29ff a73d
00000010: e5f0 9f3d 95eb 0c3d c990 0abd c85d 4abc
00000020: bc45 b6bc f802 e2bc 3ad7 803d 5782 8d3c
00000030: 16bc 3a3d 50c0 9b3c f6b4 7bbd 9d94 39bd
00000040: 3f3a f03c 7265 833d 4f18 aabd 089c 2cbc
00000050: 1ce0 a63d 62c8 1f3d f4fe 1c3d 3e94 34bd
00000060: 700f c33b e168 95bd 1184 963d 1cf2 87bd
00000070: d227 a3bd 3378 15bc 5d96 b63c 6e09 213d
00000080: 7e74 843d 6477 a8bd 5264 11bd aa95 703c
00000090: 96f2 b23d 30ad 7e3b b0af 623d 681b a3bc
000000a0: da63 343d 130d 883b 0950 4a3a eba3 1b3d
000000b0: 1a98 0e3d b7d2 31bd 53a6 8b3d 4fc2 05bd
000000c0: b457 263d 74d0 e1bb 5387 523d a6c7 2ebd
000000d0: 71a2 e2bc 5604 30bd f3d5 933d a636 50bd
000000e0: 631b 42bd 154b 80bd f3c6 c4bc 0389 483c
000000f0: 7506 9fbd bfff 80bd 95bc 4f3d 5870 853d

arith.constant38 f4 [128]
0.07452081 0.078697816 -0.03308378 -0.073397085 0.026199758 0.0034556538 -0.092113376 -0.119657815
0.065711185 0.0005234629 -0.09943576 -0.107325256 -0.07613315 0.010165304 0.104449645 -0.02551739
0.08119723 -0.08791925 -0.008914307 -0.09627709 0.07505399 -0.02319327 -0.020593911 -0.08996388
0.10271411 -0.11838378 -0.0146653205 0.080329135 -0.10075492 0.09892544 -0.0498773 -0.022358954
0.11691846 -0.011960819 -0.08103973 0.08276212 -0.0061738044 -0.026703745 -0.049059033 -0.11451706
0.11253828 0.04420516 0.108710155 0.12303755 0.10149802 0.0799835 -0.10954848 -0.065406695
0.12072033 0.0034303367 0.060312346 -0.015254796 -0.08561273 -0.06813723 0.025323913 -0.018471062
-0.12440042 -0.03744541 0.061997876 -0.020224899 -0.007002771 -0.023879558 0.021377996 0.039258644
-0.08542901 0.08382471 0.0014721304 -0.07897879 0.12064558 -0.07685195 0.041891217 0.06649387
0.038784593 -0.09377819 0.11224294 0.066854626 0.024043337 -0.018875882 -0.035647884 0.116034105
0.10017337 0.027404726 -0.10227424 -0.058831245 -0.010995761 0.07101852 -0.015783489 0.0559576
0.11098176 0.008626938 -0.06670825 -0.08641221 -0.10933566 0.11659646 0.062026158 -0.09226285
-0.10728128 0.08081287 0.03182262 0.030160561 -0.06437741 0.123285756 -0.060409367 -0.07072531
0.07271372 0.067642555 0.02697049 -0.049065277 0.12186992 -0.08873521 0.017286986 -0.0780438
0.03207022 0.062022448 0.07116665 0.017353758 -0.04128644 0.01573588 0.06771654 0.10812612
-0.12281072 0.11331111 -0.03272839 -0.06736818 -0.05519627 0.09033182 0.02441527 0.10194987
00000000: 5e9e 983d 522c a13d dc82 07bd 3651 96bd
00000010: e0a0 d63c 4078 623b f0a5 bcbd 280f f5bd
00000020: 9693 863d 0039 093a faa4 cbbd 58cd dbbd
00000030: b2eb 9bbd 608c 263c b2e9 d53d d809 d1bc
00000040: bc4a a63d 020f b4bd 500d 12bc ec2c c5bd
00000050: e8b5 993d d0ff bdbc 90b4 a8bc fc3e b8bd
00000060: c65b d23d 3273 f2bd d046 70bc 9a83 a43d
00000070: 9858 cebd 6c99 ca3d 244c 4cbd 202a b7bc
00000080: f272 ef3d 50f7 43bc 28f8 a5bd 307f a93d
00000090: a04d cabb d0c1 dabc 20f2 48bd ec87 eabd
000000a0: 787a e63d 7810 353d 6ea3 de3d 1cfb fb3d
000000b0: 32de cf3d 64ce a33d f45a e0bd f2f3 85bd
000000c0: 383c f73d 80cf 603b 140a 773d 40ef 79bc
000000d0: ba55 afbd 888b 8bbd 1874 cf3c a050 97bc
000000e0: a6c5 febd 5c60 19bd 7cf1 7d3d b0ae a5bc
000000f0: 8077 e5bb 109f c3bc e820 af3c accd 203d
00000100: 68f5 aebd 4aac ab3d 80f4 c03a a2bf a1bd
00000110: 0815 f73d 8e64 9dbd 2096 2b3d f02d 883d
00000120: 98dc 1e3d c80e c0bd a0df e53d 14eb 883d
00000130: 88f6 c43c 98a1 9abc 8403 12bd 4aa3 ed3d
00000140: b227 cd3d e07f e03c 2875 d1bd 08f9 70bd
00000150: 9027 34bc 2872 913d 604c 81bc cc33 653d
00000160: 684a e33d 0058 0d3c 569e 88bd e2f8 b0bd
00000170: 60eb dfbd 20ca ee3d 240f 7e3d 4ef4 bcbd
00000180: 4ab6 dbbd 3881 a53d 7058 023d 4813 f73c
00000190: 4ed8 83bd 3e7d fc3d d06f 77bd 6ed8 90bd
000001a0: eeea 943d 2e88 8a3d 38f1 dc3c acf8 48bd
000001b0: f096 f93d ceba b5bd 709d 8d3c 6ed5 9fbd
000001c0: 105c 033d 400b 7e3d d2bf 913d 7829 8e3c
000001d0: f81b 29bd 88e8 803c f8ae 8a3d 3a71 dd3d
000001e0: 3084 fbbd a80f e83d 340e 06bd 54f8 89bd
000001f0: 7c15 62bd e4ff b83d 8802 c83c 18cb d03d

XlaCallModule/ReadVariableOp_22;StatefulPartitionedCall f4 [64]
-0.041587327 0.06902154 -0.25854152 -0.26947075 0.13043702 -0.096249945 0.22641052 -0.24075273
-0.10226709 -0.04850674 0.20224187 -0.00035871068 -0.15230866 -0.17589666 0.2623095 0.15038209
-0.12521303 -0.10360093 -0.19404188 0.21833831 0.0647444 -0.09561893 -0.2225666 -0.2640571
0.27015355 -0.27454546 0.02360122 -0.12801266 -0.041089088 0.087913804 -0.28379643 0.1331391
-0.17765857 0.20051901 -0.27947882 0.09994711 -0.22166213 -0.07697748 0.08145841 -0.23623326
-0.24543789 0.19242218 0.10652155 0.097771876 0.056315277 0.03028395 -0.15636435 0.10508167
0.24950722 -0.2838359 0.03946263 -0.23734017 -0.20589274 0.1716726 0.267442 0.2702371
-0.29306275 0.0634951 -0.06674157 -0.1540154 0.10858456 -0.055557813 -0.013230026 0.07704843
00000000: 7957 2abd 2a5b 8d3d 8e5f 84be 12f8 89be
00000010: 4891 053e b11e c5bd 29d8 673e e287 76be
00000020: 6871 d1bd 01af 46bd 7e18 4f3e 5511 bcb9
00000030: cdf6 1bbe 411e 34be 6e4d 863e c3fd 193e
00000040: d837 00be b92c d4bd eab2 46be 1494 5f3e
00000050: b698 843d dcd3 c3bd 80e8 63be 7e32 87be
00000060: 9151 8a3e 3991 8cbe 5957 c13c c015 03be
00000070: 084d 28bd 270c b43d c44d 91be 9e55 083e
00000080: 21ec 35be db54 4d3e d917 8fbe 12b1 cc3d
00000090: 66fb 62be 5ea6 9dbd abd3 a63d 22e7 71be
000000a0: 1254 7bbe 520a 453e f827 da3d 9f3c c83d
000000b0: d9aa 663d 0c16 f83c fa1d 20be 0f35 d73d
000000c0: d27e 7f3e f052 91be 91a3 213d 4d09 73be
000000d0: 8cd5 52be f1ca 2f3e 28ee 883e 845c 8a3e
000000e0: 520c 96be b809 823d ceaf 88bd 37b6 1dbe
000000f0: 9561 de3d 9790 63bd c0c2 58bc 91cb 9d3d

XlaCallModule/ReadVariableOp_24;StatefulPartitionedCall f4 [7]
0.19510971 -0.19930525 -0.7207191 0.2642067 -0.03056857 -0.5283464 1.154079
00000000: d7ca 473e ad16 4cbe 0c81 38bf 1a46 873e
00000010: f06a fabc b641 07bf dcb8 933f

XlaCallModule/ReadVariableOp_25;StatefulPartitionedCall f4 [7]
-0.501165 -0.6758974 -0.6721114 -0.22376335 0.6213916 -1.3392873 -1.9591209
00000000: 594c 00bf 9d07 2dbf 7e0f 2cbf 3822 65be
00000010: 8513 1f3f c46d abbf 79c4 fabf
