fall_time2vec_transformer_int8.tflite (tflite, 177688 bytes, 42 tensors)

arith.constant i1 [2, 64]
000000 d2 14 22 23 b7 db 43 ff b0 c8 24 d9 eb e2 00 f8
       -46 20 34 35 -73 -37 67 -1 -80 -56 36 -39 -21 -30 0 -8
000010 1f d0 1c 08 04 fc 4c f7 37 10 30 3d b8 41 e7 58
       31 -48 28 8 4 -4 76 -9 55 16 48 61 -72 65 -25 88
000020 f3 94 d3 ca d2 e7 7f e3 18 c6 4f 2b ea ef c9 2f
       -13 -108 -45 -54 -46 -25 127 -29 24 -58 79 43 -22 -17 -55 47
000030 32 50 ca db 37 f3 35 0a 05 e5 03 dd e8 1f bc db
       50 80 -54 -37 55 -13 53 10 5 -27 3 -35 -24 31 -68 -37
000040 43 f1 fe 11 5a ea 4a e8 26 f6 2c 01 27 0e 01 aa
       67 -15 -2 17 90 -22 74 -24 38 -10 44 1 39 14 1 -86
000050 43 08 5f e8 29 d1 bd f7 2f b7 1b 41 e4 f5 cd d1
       67 8 95 -24 41 -47 -67 -9 47 -73 27 65 -28 -11 -51 -47
000060 59 7f c7 62 ae a7 8b 42 bf c0 f3 04 06 d2 09 1d
       89 127 -57 98 -82 -89 -117 66 -65 -64 -13 4 6 -46 9 29
000070 d8 0f 3c fa b2 01 dc b8 1e c9 0a 04 06 11 43 01
       -40 15 60 -6 -78 1 -36 -72 30 -55 10 4 6 17 67 1

arith.constant1 f4 [2]
000000 d7 7b 6b 3c 21 2d f5 3d
       0.014372787 0.11971498

arith.constant2 f4 [64]
000000 d9 be 6a bd 99 d7 06 bd cb 53 26 3b 3c b8 33 bd
       -0.057310913 -0.032920454 0.0025379534 -0.04387687
000010 73 3f 8e bd f9 73 00 3d 4c 38 a0 bc 10 c3 48 bc
       -0.06945696 0.0313606 -0.019558094 -0.012253538
000020 df 66 8b bd 70 13 de bd 41 7e 80 bc 0f a0 da bc
       -0.068067305 -0.10843551 -0.015685203 -0.02668765
000030 c5 29 d6 3b 06 0c 7e 3d 34 f8 ae ba a2 87 0a bc
       0.006535741 0.062023185 -0.0013349117 -0.008455189
000040 3c 86 27 3d 50 eb 94 3d 8f 51 67 bc 7b 21 e9 3a
       0.0408995 0.07271445 -0.014118566 0.0017786467
000050 92 31 36 3d 9c aa a0 3c bf 76 98 bd 53 76 a5 bb
       0.044480868 0.019612603 -0.07444524 -0.0050495057
000060 90 0d 29 bd 14 5e 94 3b b9 05 49 bb d9 c2 a4 bd
       -0.0412727 0.0045278165 -0.0030673577 -0.08044977
000070 3c 89 c2 3c 1f d6 91 bd 3e 2b ea bb f1 b4 14 3c
       0.02374708 -0.071209185 -0.007146268 0.009076343
000080 52 bd fe 3c bb e1 33 bc 78 59 20 bd 0b 8e 93 bd
       0.031096134 -0.010979111 -0.039147824 -0.07204827
000090 b1 c7 6f 3d fd df 24 bd c8 7c ab bd 0a c7 83 3d
       0.05854005 -0.040252674 -0.083734095 0.06434448
0000a0 ac 00 1c bd fc 35 81 3c 8c a0 3e 3d 88 ab 01 3d
       -0.03808658 0.015772812 0.04653983 0.031657726
0000b0 84 d7 c6 bc be 29 0f b7 10 af 34 3d 64 2c 4f 3d
       -0.024272688 -8.533183e-06 0.044112265 0.050579444
0000c0 3c 15 c8 3b e3 34 1f bd 8a 87 54 3d 8f 62 92 3d
       0.006106047 -0.038868796 0.051887073 0.07147705
0000d0 97 3a 40 3d 19 83 0a be 43 82 54 bd 55 6d 8c bd
       0.046930876 -0.13526572 -0.05188204 -0.06856791
0000e0 bf 67 12 bd 11 f9 79 3c 37 5a 29 3d 65 be 82 3b
       -0.03574347 0.015257136 0.0413458 0.003989982
0000f0 86 0d e7 bc 18 d3 0e 3d c6 15 40 3d f0 bd 37 3d
       -0.02820469 0.034869283 0.046895765 0.044858873

arith.constant3 f4 [64]
000000 cc 26 46 3c d3 f8 a0 3b 82 a7 c5 bb 87 de 42 3c
       0.012094211 0.0049124747 -0.0060319314 0.011893875
000010 0d 6a d7 38 1e 7c a3 bb b3 32 86 bc 68 d5 be 3b
       0.000102717524 -0.004989161 -0.016381597 0.00582378
000020 37 6b 2d ba fd a8 2e bd 83 2f 05 3c 02 86 1e 3d
       -0.00066154025 -0.04264163 0.008129003 0.03870202
000030 17 ac be 3b 7d c7 03 bc ac 43 fb 3b 57 9f 06 bb
       0.0058188546 -0.008043167 0.007667979 -0.0020541751
000040 fb 42 a6 3c 31 50 f4 3b 72 e3 bb bb 59 42 14 bd
       0.02029561 0.0074558486 -0.0057339007 -0.036196087
000050 c2 51 41 bc 1e f3 1f bb c2 d4 08 3c 34 97 a4 bb
       -0.011799278 -0.0024406384 0.008351507 -0.0050229076
000060 5e ce 01 bd 14 b9 61 3c b6 68 0d bc 00 56 9a bc
       -0.031690948 0.013777036 -0.008630922 -0.018839836
000070 0a 2f 16 bb 86 d0 9e bb d2 a7 c5 bc bf 77 18 3b
       -0.002291622 -0.0048466353 -0.024127875 0.0023264734
000080 bd 7e 31 3c 61 37 03 3b dc 6e 99 bc 41 7e fd 3b
       0.010833439 0.0020022022 -0.01872962 0.007735998
000090 b1 7a 71 3c 01 bb 24 3c ff b0 59 3b 50 f9 c0 3b
       0.014738725 0.010054351 0.003321707 0.0058890954
0000a0 d2 c9 47 bc 6b 23 25 bc b5 cd 97 bb 7b 18 8f bc
       -0.012194114 -0.010079245 -0.0046326765 -0.017467728
0000b0 66 0a c8 bb ba 8a 02 bd 40 43 7c 39 06 0a 3f 3c
       -0.006104755 -0.03187058 0.00024057645 0.011660105
0000c0 5e 0d 25 3c c9 ed 89 3c 9d 05 1d bb 23 dd d6 bb
       0.010073988 0.016837018 -0.0023959645 -0.0065571233
0000d0 d1 e8 56 3b 60 95 36 bd 33 f2 9d 3c 9a 11 8a bb
       0.0032792578 -0.04457605 0.019280529 -0.004213524
0000e0 0c c0 34 bc d8 f1 19 3b c7 5d 5c 3c b4 dc 1b bc
       -0.011032116 0.0023490097 0.013450093 -0.009513069
0000f0 c4 3d 0b bb d8 ac 80 3d bc 3d 57 bc 40 67 1c bc
       -0.0021246532 0.06282967 -0.013137277 -0.009546101

arith.constant4 i1 [192, 64]
000000 cc 0b dd df f2 08 04 04 3b 68 02 c9 fa 06 08 d8
       -52 11 -35 -33 -14 8 4 4 59 104 2 -55 -6 6 8 -40
000010 18 d3 1e 7f 1d f3 cd 13 ef e5 0f 0c fc e7 5d f4
       24 -45 30 127 29 -13 -51 19 -17 -27 15 12 -4 -25 93 -12
000020 20 19 02 0e e4 13 1f f1 e4 d4 e3 02 5a fc ed fa
       32 25 2 14 -28 19 31 -15 -28 -44 -29 2 90 -4 -19 -6
000030 47 05 15 03 d9 37 e7 d5 fa f8 d8 c3 03 dc 1a fb
       71 5 21 3 -39 55 -25 -43 -6 -8 -40 -61 3 -36 26 -5
000040 2c f2 21 e9 06 05 14 44 b0 ac f3 d2 02 0f fb 3e
       44 -14 33 -23 6 5 20 68 -80 -84 -13 -46 2 15 -5 62
000050 0e 3f 0a 19 e1 e4 05 2a 30 e1 01 f3 f3 08 c9 d9
       14 63 10 25 -31 -28 5 42 48 -31 1 -13 -13 8 -55 -39
000060 dc 7f 24 9c e8 a4 25 3a 2d 0c 95 31 fc 29 05 20
       -36 127 36 -100 -24 -92 37 58 45 12 -107 49 -4 41 5 32
000070 25 fc ec e5 39 09 98 33 f3 f8 dd 17 09 9a 38 f3
       37 -4 -20 -27 57 9 -104 51 -13 -8 -35 23 9 -102 56 -13
000080 0e fd 09 f6 09 01 09 14 f5 09 02 f2 03 03 07 0b
       14 -3 9 -10 9 1 9 20 -11 9 2 -14 3 3 7 11
000090 09 0f 02 81 f2 f2 03 12 03 f2 02 03 f8 00 1d e8
       9 15 2 -127 -14 -14 3 18 3 -14 2 3 -8 0 29 -24
0000a0 07 24 06 ef 00 f1 f7 22 06 fa e7 02 18 09 fd 0b
       7 36 6 -17 0 -15 -9 34 6 -6 -25 2 24 9 -3 11
0000b0 14 ff fa f9 f8 e9 f9 08 fb fe f3 f7 fe ee 13 fa
       20 -1 -6 -7 -8 -23 -7 8 -5 -2 -13 -9 -2 -18 19 -6
0000c0 47 f3 1e 10 0f f8 00 05 df ac fd 3e 06 f8 02 20
       71 -13 30 16 15 -8 0 5 -33 -84 -3 62 6 -8 2 32
0000d0 df 55 ea 81 dd 0f 44 ee f2 15 f3 f4 0a 19 af fd
       -33 85 -22 -127 -35 15 68 -18 -14 21 -13 -12 10 25 -81 -3
0000e0 e5 ff f6 f0 2e d0 db 1e 29 35 fd 0f 8f 02 1e 12
       -27 -1 -10 -16 46 -48 -37 30 41 53 -3 15 -113 2 30 18
0000f0 b8 f6 ea ff 06 9f 05 29 0a 0e 2f 4d 03 35 e6 01
       -72 -10 -22 -1 6 -97 5 41 10 14 47 77 3 53 -26 1

arith.constant5 f4 [192]
000000 1a 3e 36 bd b4 48 16 ba b3 42 95 39 88 de 34 3d
       -0.04449282 -0.00057328795 0.0002846919 0.044157535
000010 32 19 e0 b8 c3 cc 89 3d 61 89 86 39 e6 29 0c 3d
       -0.00010685845 0.06728508 0.00025660827 0.034219645
000020 91 f7 2e 3d eb df c8 bc 2e ec 93 ba 15 e5 d7 b9
       0.042716566 -0.024520835 -0.0011285597 -0.00041178675
000030 8e b2 c2 3c e8 05 63 3d ac c1 92 ba f9 9c 76 bc
       0.023766782 0.055425555 -0.0011196635 -0.015052074
000040 73 5a cb 3c 31 aa 7b 3c d4 4f 47 3d a3 51 45 bd
       0.024823403 0.015360401 0.048660114 -0.048173558
000050 49 f9 3f 3c f2 d2 99 3d b6 d9 61 bc a8 27 1c bd
       0.011717149 0.07510938 -0.0137848165 -0.038123757
000060 55 73 3f 3c 5e 57 bb bc 2c 38 81 bc 4f 57 dc bc
       0.011685212 -0.022868808 -0.015773855 -0.0268971
000070 bf 67 65 bd fa 5b e0 bc 33 64 72 bc 05 d1 a6 bd
       -0.056007143 -0.027387608 -0.014794397 -0.08145336
000080 df c3 72 3d 09 b9 3e 3d c8 59 0b 3b e5 f0 78 bd
       0.05926883 0.046563182 0.002126323 -0.06077661
000090 b2 f3 88 bd 2c c3 45 3c db a7 1b bd 92 e6 c9 bc
       -0.06687106 0.012070458 -0.038001876 -0.024646077
0000a0 d5 c0 e7 ba 15 0e bb ba 31 d8 bf bc cd 65 7c bd
       -0.001768137 -0.0014271165 -0.023418518 -0.061620522
0000b0 b1 46 ad 3c a1 9c 6f 38 c9 63 75 3b 8a a9 1c 3b
       0.021151872 5.7127912e-05 0.003744351 0.0023904764
0000c0 cf 56 8c 3d 82 db 98 3b 74 40 13 3d 53 0f da 3c
       0.06852495 0.0046648392 0.03595014 0.026618635
0000d0 e2 c5 0c bd 00 ee e9 bc 3a 4e 9d bc 11 08 8d 3d
       -0.034368403 -0.02855587 -0.01920234 0.06886304
0000e0 49 ac f6 bc 36 ec 13 3e d3 87 dc bd bd 97 9c 3d
       -0.030111449 0.14445576 -0.10768094 0.07646129
0000f0 1b 01 8e 3d b3 d8 d2 3a d3 e7 aa bd a2 cb 26 bd
       0.069338046 0.001608631 -0.08344998 -0.040721543
000100 ee 30 33 3b 5c dd ef b8 42 7a e2 b7 f1 06 8d bb
       0.0027342397 -0.000114376395 -2.699823e-05 -0.004303806
000110 45 87 0b b8 ed 18 d3 bb eb e9 c8 b7 89 0d b6 ba
       -3.3266162e-05 -0.0064421804 -2.3950784e-05 -0.0013889532
000120 65 33 56 bb 0e 60 17 3a 03 77 35 b9 28 00 af 38
       -0.0032684442 0.0005774506 -0.0001730584 8.3446794e-05
000130 3f 85 2a ba 63 65 ec bb f5 2b ce 39 f4 ce d9 39
       -0.00065048406 -0.0072142347 0.00039324132 0.00041543657
000140 3e 35 82 bc 3d cb 12 ba 01 6e d3 bb c2 ea b9 3b
       -0.015894528 -0.0005599743 -0.0064523225 0.0056737373
000150 36 82 1c bc ef b0 bf bb 83 77 af 3b 0f 92 c9 3b
       -0.009552529 -0.0058499495 0.005354823 0.0061514447
000160 79 d6 ee bb 94 51 68 3b 41 8d 01 3b 88 28 21 3c
       -0.0072887507 0.0035449015 0.0019768032 0.009836324
000170 b0 f4 31 3c 35 61 85 3b 94 29 25 3c cd e5 08 3c
       0.010861561 0.004070426 0.010080714 0.00835557
000180 64 0c 6f 3c 7d da ff 3b ab 49 92 b8 dc 58 7b bc
       0.0145903565 0.0078080283 -6.975544e-05 -0.01534101
000190 f9 ec 25 bc 81 dd f4 3a 41 82 0a bc ab 7f 83 bb
       -0.010127299 0.0018681736 -0.0084539065 -0.004013022
0001a0 b4 87 6a b8 b8 2d d0 b7 4f 8a be bb 8a 2b 2e bc
       -5.591633e-05 -2.4816822e-05 -0.0058148275 -0.010630498
0001b0 c0 45 67 3b 52 be f9 b8 ee ae e6 b7 e3 2b e4 b8
       0.0035289377 -0.00011908695 -2.7499595e-05 -0.00010880062
0001c0 d2 90 8f 3b 82 94 e0 3a 6e 56 9d bb 44 b8 a8 3b
       0.0043812776 0.0017134103 -0.004801563 0.0051489193
0001d0 5d 9a 1d 3b e8 ee 12 bb 91 fe 4b bc 36 b6 11 bc
       0.0024048307 -0.0022420231 -0.01245083 -0.00889354
0001e0 43 b7 61 3b 43 f8 2b bc 5c c1 9a 3b 21 2c fb bb
       0.0034441508 -0.010496202 0.0047227573 -0.0076651727
0001f0 cd 55 40 ba 42 68 5b 3b ee e8 48 3c af 45 b1 bb
       -0.0007337004 0.003347889 0.012262566 -0.0054099183
000200 4b 32 1e bd 9e f1 80 38 66 f8 70 3c 53 6a b1 bb
       -0.03862218 6.14852e-05 0.01470766 -0.005414286
000210 e1 33 83 bc cd d8 00 3d 64 20 e4 3b 49 19 94 3b
       -0.016015949 0.031456757 0.006961869 0.004519616
000220 24 07 bb 3b c4 be 7f 3b 6d 10 f4 bb f0 97 a8 bc
       0.0057076383 0.0039023617 -0.007448247 -0.020580262
000230 88 ce 91 bc 06 19 90 3b 26 ce 71 3c a9 49 56 bc
       -0.017798677 0.0043975143 0.014758622 -0.013079085
000240 ec 15 c5 3c b1 35 c5 3c 76 5a c0 bc 66 d4 22 3b
       0.024058305 0.024073454 -0.023480635 0.0024845838
000250 6c e2 ee 3a ea 3d a6 bb 79 1b b1 bc f0 c3 db bc
       0.0018225438 -0.0050732987 -0.021619545 -0.026826829
000260 fc e1 c6 3c 62 bb bf bc 4e 20 ad bc 8b d4 a0 3b
       0.02427768 -0.02340478 -0.021133568 0.0049081496
000270 76 4b 5c 3c ec 7a 9c ba d8 25 af 3c 97 8f af 3c
       0.013445726 -0.0011938489 0.02138035 0.021430774
000280 c2 cb 1d bc 3e 6d 27 bc f4 48 21 3c ec c4 dc 3c
       -0.009631099 -0.010218916 0.009844054 0.026949368
000290 3c b4 d3 bc 89 ba 05 3c f8 5e 4f bb cc 4b d5 3b
       -0.025842778 0.008162149 -0.00316423 0.00650928
0002a0 7f 04 e7 bc 4a c1 4d bc 07 9c 27 3c ff 8a 5d 37
       -0.028200386 -0.012558291 0.010230071 1.3204989e-05
0002b0 9b 35 60 bc bd a0 08 bc fb e8 3b bb 9e 95 46 3c
       -0.013684656 -0.008339104 -0.0028672803 0.012120632
0002c0 0a 97 36 bc cf 8f 59 bc 70 e3 2e 3c 8e a4 26 bc
       -0.011144409 -0.013278916 0.0106743425 -0.010171069
0002d0 7d 01 94 bc 9e 23 a4 bb c9 61 a2 bb 69 bd 06 3a
       -0.018067116 -0.0050091287 -0.0049555046 0.00051399186
0002e0 17 08 f5 bc 72 13 1e 3d 85 e7 39 3b a2 fc bd 3b
       -0.029911084 0.038592763 0.0028366756 0.0057979384
0002f0 e5 4c 9d 3c 46 a5 92 bc a0 a8 9c 3c 91 7f 2f ba
       0.019201705 -0.017901074 0.019123375 -0.0006694729

arith.constant6 f4 [64]
000000 71 e6 71 bd 27 b8 09 bd 16 6f 39 3c f3 4d 57 bd
       -0.059057657 -0.033622887 0.011317989 -0.052564573
000010 68 c6 96 bd 0c c2 8e 3c 66 f5 1b b9 da 84 01 bd
       -0.07362062 0.017426513 -0.0001487337 -0.031620838
000020 f8 50 98 bd 6f 01 8f bd 32 36 82 bc b3 61 d2 bc
       -0.074373186 -0.06982695 -0.015894983 -0.025681352
000030 25 1e 30 3c 4e 84 14 3d b3 84 80 bc 86 30 06 bc
       0.0107493745 0.036258988 -0.015688276 -0.00819028
000040 3a dd 94 3c 60 55 99 3d 7a 7c cc bb b6 b2 9f 3b
       0.018171895 0.07486987 -0.0062404247 0.004873599
000050 ae ae eb 3c e8 ee 9e 3c ad 8e 77 bd 55 ee 43 bc
       0.028769817 0.019401029 -0.0604388 -0.011958678
000060 97 3e ec 39 d0 ce e4 ba c2 8f 1e bc 2c 89 34 bd
       0.0004506006 -0.0017456654 -0.009677829 -0.04407613
000070 b3 c3 c7 3c 7a e4 66 bd 72 00 cc 3c 15 d5 48 3c
       0.024385309 -0.056370236 0.024902556 0.012257834
000080 9c e3 c7 3c 25 ae 64 bc 58 77 98 bc 15 08 8d bd
       0.024400525 -0.013957535 -0.018611595 -0.06886307
000090 90 eb 25 3d 5f f7 40 bd 5f cd a9 bd f7 64 4c 3d
       0.040507853 -0.04711091 -0.082911246 0.049900975
0000a0 e2 23 89 bc f6 bd 1d 3d 5e 1a 15 3d 78 6b 1f 3d
       -0.016740743 0.03851124 0.0364021 0.03892085
0000b0 4c 9a da bc ee c8 79 3c 75 7e 04 3d b0 3a 02 3d
       -0.026684903 0.015245659 0.03234716 0.03179425
0000c0 31 f7 68 bb f3 09 3c bd 14 11 3a 3d de a3 58 3d
       -0.0035547728 -0.045907926 0.045426443 0.05289065
0000d0 bb 9c 75 3d ad ef ab bd e3 8a 5c bd 57 8e 8a bd
       0.059963923 -0.08395324 -0.05384339 -0.067654304
0000e0 58 3f b5 bc 1b 19 ea 3c 14 bb 04 3d 49 4d 1e 3c
       -0.022124931 0.028576424 0.032404974 0.009661981
0000f0 d8 e3 9b bc ec 6e af 3c c0 48 fd 3c 78 de 74 3d
       -0.019029543 0.021415196 0.030918479 0.059782475

arith.constant7 f4 [64]
000000 5a fd 58 3b ed a6 d4 bb 7e 1d e6 3b d9 a1 94 3c
       0.0033109994 -0.0064896257 0.0070225587 0.018143581
000010 21 29 d3 38 5e 93 5e bc 31 7e 02 bc c3 22 f9 bb
       0.00010068925 -0.01358494 -0.007964657 -0.007603021
000020 47 77 d7 3b cb 48 8f bc e8 99 c5 3b ff d1 21 3d
       0.0065754983 -0.017490765 0.00603031 0.03950691
000030 ee 87 de 3b 9b fd 35 bc 86 d5 58 3c f4 d2 8e 3a
       0.0067911064 -0.011107828 0.013234502 0.0010896609
000040 56 54 67 bc 39 bb 8a 3c 56 9b 2d 3c d5 3e 43 bc
       -0.014119228 0.016934978 0.010596117 -0.011916836
000050 be 67 87 bc 1a 49 8f 3b d1 f7 14 3c e6 a5 86 bc
       -0.01652896 0.004372728 0.009092287 -0.016436528
000060 41 b6 c7 bb 18 28 05 ba 8a d5 9f bc 7d cb 93 3c
       -0.0060947244 -0.0005079522 -0.019511003 0.018041367
000070 94 c9 96 3b 02 e6 27 3c 12 4a 53 3b a4 d6 0c ba
       0.0046016667 0.010247709 0.0032240194 -0.000537256
000080 cf af 43 3c 82 87 fa 3b b5 b3 d9 3b 6a 54 18 3c
       0.0119437715 0.0076455483 0.006643737 0.00929747
000090 d4 8f 58 bb ea 72 98 bc 1e f6 d0 bb 65 c6 c9 3b
       -0.0033044713 -0.018609483 -0.0063769957 0.0061576837
0000a0 e1 bd 7e bc d0 4e a6 bb 31 bc 61 bc 23 f2 01 bc
       -0.0155482 -0.005075313 -0.0137777785 -0.007931265
0000b0 2a e6 f2 3b 90 6e 43 3b 54 16 33 bb 9b 42 70 3b
       0.0074126916 0.002982054 -0.002732654 0.0036660794
0000c0 27 fd 86 bc fa 0a 1b bb 33 ea 12 3b 88 77 86 bb
       -0.016478134 -0.0023657666 0.0022417426 -0.0041036047
0000d0 4d a0 a6 3b a0 8d 8e bc 0e a5 ab 3c c3 8c 8d 3a
       0.0050850273 -0.017401516 0.020952728 0.0010799397
0000e0 7a 67 89 3b 7a ce bf 3b 7f a3 92 3c 5c 77 ec 3b
       0.0041932436 0.0058534713 0.017900227 0.007216377
0000f0 13 a0 29 bc 66 b3 2e 3d 8d cf fd bc 5d a1 2e 3c
       -0.010353106 0.042651556 -0.030982757 0.010658589

arith.constant8 i1 [192, 64]
000000 2a 14 3c 08 da 12 34 2d e1 08 e7 94 c3 0d f1 dd
       42 20 60 8 -38 18 52 45 -31 8 -25 -108 -61 13 -15 -35
000010 26 f8 ff fc 1f 30 1b 27 37 3b 47 e4 05 22 cb fe
       38 -8 -1 -4 31 48 27 39 55 59 71 -28 5 34 -53 -2
000020 fb 19 a6 ba ce d5 60 c1 d1 13 a8 61 7f d3 07 29
       -5 25 -90 -70 -50 -43 96 -63 -47 19 -88 97 127 -45 7 41
000030 3e 10 c6 f6 00 90 0d 5c c9 ff 05 31 0b e8 5a f1
       62 16 -58 -10 0 -112 13 92 -55 -1 5 49 11 -24 90 -15
000040 69 ec fa 09 34 ef 04 0a cb 97 00 e4 d5 01 f9 33
       105 -20 -6 9 52 -17 4 10 -53 -105 0 -28 -43 1 -7 51
000050 13 2a 0a 15 0e 17 ef ea d1 41 05 c1 0f 0e 98 f2
       19 42 10 21 14 23 -17 -22 -47 65 5 -63 15 14 -104 -14
000060 26 ea bb ff 05 14 21 3e c7 5b 0f f9 eb cc 27 1d
       38 -22 -69 -1 5 20 33 62 -57 91 15 -7 -21 -52 39 29
000070 0f e9 03 29 ff f9 15 04 ee 18 14 7f 2b f2 cd bb
       15 -23 3 41 -1 -7 21 4 -18 24 20 127 43 -14 -51 -69
000080 b9 1c 0b 09 9b 24 1d 13 2a 71 fb b9 09 fb 09 a0
       -71 28 11 9 -101 36 29 19 42 113 -5 -71 9 -5 9 -96
000090 01 d6 fe eb fd fd 18 20 01 dc 2f 39 01 f7 7f 21
       1 -42 -2 -21 -3 -3 24 32 1 -36 47 57 1 -9 127 33
0000a0 db fb 1f e0 ee fb 1e ae 25 ae ad 37 48 00 d7 05
       -37 -5 31 -32 -18 -5 30 -82 37 -82 -83 55 72 0 -41 5
0000b0 40 37 e4 e4 0a ec da 05 0c f7 f1 8a db 03 47 25
       64 55 -28 -28 10 -20 -38 5 12 -9 -15 -118 -37 3 71 37
0000c0 34 c5 e4 e5 40 dc e5 0d 0c b9 0e 3f f5 00 0e 3c
       52 -59 -28 -27 64 -36 -27 13 12 -71 14 63 -11 0 14 60
0000d0 e9 26 12 fe e9 e0 fe f4 d4 01 e4 b9 1f f8 c0 de
       -23 38 18 -2 -23 -32 -2 -12 -44 1 -28 -71 31 -8 -64 -34
0000e0 ff 1f ef 19 27 fd d5 70 0f 42 32 e4 81 15 15 28
       -1 31 -17 25 39 -3 -43 112 15 66 50 -28 -127 21 21 40
0000f0 d7 d7 25 10 c9 19 10 f3 09 0d 07 4e 28 ea af d3
       -41 -41 37 16 -55 25 16 -13 9 13 7 78 40 -22 -81 -45

arith.constant9 f4 [192]
000000 ce c7 0d 3d 42 e9 11 3d cd 65 e6 bd c4 4f 17 3d
       0.034614377 0.035622843 -0.11249886 0.036941305
000010 28 cc a0 bc 0d 2c 4d 3d ca c7 92 bd 62 e2 83 bc
       -0.0196286 0.05009084 -0.07167013 -0.016099159
000020 9a c3 35 3d 56 5c 88 bd 00 6e c4 bc c3 71 11 3d
       0.044375993 -0.06658237 -0.023978233 0.035508882
000030 98 c5 e2 3d bf 7e 5f bb c4 dd 97 3d d6 ba 89 bd
       0.11072844 -0.0034102646 0.07415345 -0.06725089
000040 81 93 80 3d 76 48 54 bd 80 d3 d8 3d 65 42 b2 bd
       0.06278134 -0.051826917 0.105872154 -0.0870407
000050 b8 8e 9b 3d 17 6e 2a 3e fd 91 bf 3a 1f 0b 44 bd
       0.07595581 0.16643558 0.0014615651 -0.04786217
000060 42 3e ce 3c f5 8e 5c 3c 6e db c8 3c 15 f8 b5 bd
       0.025176171 0.013461818 0.024518695 -0.088852085
000070 56 98 d3 bd da 02 8f 3d 6e 6e 27 3d e7 8f 0d be
       -0.1033179 0.06982966 0.0408768 -0.13824426
000080 f5 e1 28 bd d0 16 20 3e cd 26 f6 bb 6c 28 94 bd
       -0.041231114 0.15633702 -0.0075119496 -0.07234272
000090 cd d9 d0 bd a1 01 a5 3d 7f 4a f5 3c f8 28 0b bc
       -0.10197792 0.08056951 0.029942749 -0.008493654
0000a0 85 54 ba 3c e4 6f 02 3c 1c 98 0f 3d 3c 47 7c bd
       0.02274538 0.007961247 0.035057172 -0.061591372
0000b0 e6 ad 5f bc e1 42 0b bc 61 25 9c 3d 2a 2f c4 3d
       -0.0136523 -0.008499832 0.07624317 0.09579308
0000c0 5d d0 8a bd cb 2b 25 3d b4 d3 a7 3b 48 c5 5d bd
       -0.067780234 0.040324967 0.0051216725 -0.05414322
0000d0 c2 39 0c bd 5a ab 9e 3d f7 d6 84 3c c6 9c 8e 3d
       -0.03423477 0.077475265 0.016215784 0.06963496
0000e0 8e 44 c1 bd dc c7 80 bb c5 93 90 bd 4d 99 06 bb
       -0.09436904 -0.003930075 -0.07059435 -0.0020538152
0000f0 5b 56 46 3d d8 2d 13 be be 25 8e bd 1b fa 3d 3d
       0.0484222 -0.14372957 -0.069407925 0.046381097
000100 bd 27 50 3c 3d 87 e9 39 4d 25 92 3b c0 f7 7b 3a
       0.012704787 0.00044541984 0.004460013 0.0009611808
000110 6c 1b a7 ba 81 e3 9d 38 ac aa 4e bc 95 ab 5f bb
       -0.0012749261 7.528719e-05 -0.0126139335 -0.003412937
000120 50 f4 e5 3b 77 59 27 bc f8 d8 ec bb 2c 27 9b 3a
       0.0070176497 -0.010214201 -0.007228013 0.0011837236
000130 b7 56 cb 3b 75 b6 65 3a 2a 0d 6a 3c 19 69 cc ba
       0.0062054056 0.0008762845 0.014285365 -0.0015595286
000140 d7 6d 5f bc cd 9f 69 ba 7b 1e f0 b9 a8 0c 82 3c
       -0.013637028 -0.0008912057 -0.00045799077 0.015875176
000150 44 d7 cf 3b eb 0e 4e b9 7d 97 9f bb 69 fe a1 3b
       0.0063428003 -0.00019651248 -0.0048703537 0.004943658
000160 8d 19 4d bc 3b 02 af bb e6 94 93 3c b7 9c 8b bb
       -0.012518299 -0.005340842 0.018015336 -0.004260625
000170 a4 5d dc 3b f2 69 e9 3b 86 96 e3 3b 6b 05 bf 3b
       0.00672503 0.0071232254 0.006945434 0.0058295033
000180 f3 62 61 3c 6f b8 e4 3c bc 89 81 3a 81 a4 33 bc
       0.0137565015 0.027919976 0.0009882967 -0.010964514
000190 7d 72 85 bc 1a 7f b6 bb 91 8f 26 bd 35 9d 6e bc
       -0.016289944 -0.005569351 -0.04066426 -0.014563848
0001a0 0d f0 17 3c e4 17 2a bb 4d a5 ae bc f7 85 e5 bc
       0.009273541 -0.0025954181 -0.021319056 -0.028017981
0001b0 f3 a7 c6 3c 05 33 88 bc 42 b0 b0 bc 9a 46 a4 bc
       0.024250006 -0.01662589 -0.021568421 -0.020053197
0001c0 94 9b ae ba d0 c3 5b 3b de b9 b4 bb c2 69 e4 ba
       -0.0013321512 0.0033533461 -0.005515321 -0.0017426538
0001d0 e5 43 24 3c 54 dd 8d ba a4 34 8e bc 6b ef 35 bc
       0.010025953 -0.0010823407 -0.017359085 -0.011104445
0001e0 7f c8 d7 3b 45 89 80 bb 46 ae 2d bb 4c fd 98 bc
       0.0065851803 -0.003922614 -0.002650158 -0.018675469
0001f0 c3 b3 d7 bb ff a8 46 b9 41 1d 60 3c ab d9 84 bb
       -0.0065827086 -0.00018945707 0.01367885 -0.0040542684
000200 33 76 61 bc f6 26 65 bc 81 24 d5 3b 68 17 2e 3c
       -0.013761091 -0.01398634 0.0065045957 0.010625698
000210 c1 99 d1 3b cc 8c 44 3c bb 30 b1 3b 0e 77 3c 3c
       0.0063965027 0.011996459 0.0054074205 0.011502994
000220 ac b9 bf 3a ae b1 a5 bc ec 9b e6 bb bc e2 7c bc
       0.0014627478 -0.020226326 -0.0070376303 -0.015434917
000230 7e b8 d5 bc 9f 40 19 3c 58 20 17 39 c8 51 c1 bb
       -0.02608895 0.009353786 0.00014412531 -0.0058996417
000240 70 d0 b6 3c 5d 86 f9 3c 88 11 91 bc d0 c4 1d 3c
       0.022316188 0.030459577 -0.017708555 0.009629443
000250 86 8d 5e bc 99 54 55 bb b2 07 0e ba e7 c1 a1 bc
       -0.0135835465 -0.0032551645 -0.0005418017 -0.01974578
000260 41 14 1f 3c 20 a7 12 bd 67 e3 67 bc f7 08 d2 bc
       0.009709419 -0.035803914 -0.014153338 -0.02563904
000270 d8 ca 46 bc d5 93 41 3a f6 ca 8e 3c 91 c8 6e bc
       -0.012133323 0.00073843944 0.017430764 -0.014574186
000280 cb ea d4 3c 9b c3 90 3c a1 3c 97 3b 16 f5 92 bc
       0.025990864 0.017671397 0.004615382 -0.017939132
000290 36 8c a4 3c 75 46 38 3d d1 ac 13 3d da c1 93 bb
       0.020086389 0.044989068 0.036053482 -0.004509193
0002a0 4c db dd 3b d8 15 ea 3c 33 13 da ba f3 a4 fc 3b
       0.006770527 0.028574869 -0.0016637802 0.007710093
0002b0 2b fb 88 3c 67 be 09 bb eb 22 0e 3c 91 26 4e bc
       0.016721329 -0.002101803 0.008675317 -0.012582437
0002c0 a9 83 b5 3b d9 28 43 3c ab 88 b9 3c 54 8f f9 bb
       0.0055393768 0.011911594 0.022648176 -0.007615963
0002d0 2b 09 22 bc d4 05 73 3c 69 38 b2 bc 6f 5c 8c 3a
       -0.009889881 0.0148329325 -0.021755414 0.00107087
0002e0 d9 c9 ad bc d1 20 c7 3c ef 38 8a 3b 2e d7 ce 39
       -0.021214413 0.02430764 0.004218213 0.00039451703
0002f0 16 f2 b3 3b fc 71 fb 3b a0 7e 04 bc 68 02 58 3c
       0.0054915054 0.0076735 -0.00808683 0.013184167

arith.constant10 f4 [64]
000000 24 4e a1 bd 3c 86 64 bd 44 74 d4 3c fd 23 37 bd
       -0.07876232 -0.05579208 0.025934346 -0.044712055
000010 70 45 cb bd 91 ac 93 3c 4d 0b c0 3b e1 2a 0f bd
       -0.099253535 0.018026622 0.005860722 -0.034953002
000020 63 d6 7a bd f6 aa 26 bd 58 7c 80 bd f0 dd 71 bd
       -0.06123961 -0.040690385 -0.06273717 -0.059049547
000030 02 08 0d bc 70 b6 72 3d 9e f7 3b bc 9a d2 d6 bc
       -0.008607866 0.059256017 -0.011472611 -0.02622347
000040 b4 5d 34 bb 42 97 8d 3d cb e3 ad bb 9f 27 2a 3d
       -0.0027521672 0.06913616 -0.005306696 0.041541692
000050 cb 51 48 3d e3 73 a8 3c 0a 09 9a bd e2 a7 8a 3c
       0.04890613 0.020563072 -0.07521255 0.016925756
000060 f5 28 86 3c 8e ee d1 bc ab 8f d2 3c fc 5a 18 bd
       0.016376952 -0.025626447 0.025703272 -0.037196144
000070 55 41 1b 3d 82 62 53 bd 66 f2 53 3d 59 48 79 3c
       0.037904102 -0.051607616 0.05174484 0.015215003
000080 4a cc b5 3c 9f 05 af bb 51 92 c8 3c ec e1 9d bd
       0.02219214 -0.0053412463 0.024483832 -0.07709107
000090 f8 2d 0b 3d ba 84 8b bd da 63 b7 bd 61 cc fd 3c
       0.033979386 -0.06812425 -0.08954592 0.030981245
0000a0 22 3e a4 bc d1 b8 18 3d 1f f2 e4 3c f5 6e 61 3d
       -0.020049158 0.03728563 0.027947484 0.055037457
0000b0 e8 8a b8 bb 80 a8 f5 3c 5b 9a 1b 3d f3 29 76 3d
       -0.0056317933 0.029987574 0.037989 0.0600986
0000c0 e5 61 ad 3c 09 bb 8d bd 9b 43 64 3d 08 bc 54 3d
       0.021164844 -0.0692044 0.055728536 0.051937133
0000d0 87 1e 65 3d aa f6 a7 bd 23 b0 9c bd ed 78 57 bd
       0.055937316 -0.08201344 -0.07650783 -0.05260556
0000e0 f7 59 3b bd 2e 1f 86 3c 05 57 f5 bb 7d d7 2b bd
       -0.045740094 0.01637229 -0.00748718 -0.041953553
0000f0 fe 35 6c bd b6 90 0f bd 74 30 32 3d 52 f4 4c 3c
       -0.05766868 -0.035050116 0.04350324 0.012509422

arith.constant11 f4 [64]
000000 48 b4 84 3c eb 1a 20 3d f7 9f 4e 3d 52 37 8d 3d
       0.016199246 0.03908817 0.050445523 0.06895317
000010 59 1b 0c bd b3 21 4a 3a 88 30 19 3d 9d 4c c5 3c
       -0.03420577 0.000771071 0.0373998 0.024084384
000020 b5 91 12 bd a1 8c 31 bd 12 68 da bc 34 aa 17 bd
       -0.03578349 -0.043347005 -0.026660953 -0.037027553
000030 3d c6 75 bd e9 d7 cd 3b f5 cf 01 bd 87 2e 58 3d
       -0.060003508 0.006281842 -0.031692464 0.052778747
000040 50 7c e4 3c 49 3d 5e bd 66 ff 8d bd 38 b7 da bc
       0.027891308 -0.054257665 -0.06933479 -0.026698694
000050 df 2a 67 3c 61 d7 2e 3d 51 d5 0d 3d 0c 77 1a bd
       0.014109342 0.04268587 0.034627263 -0.03771119
000060 c6 ce 12 3d e1 98 ed 3c 6e d7 cf 3c f7 62 13 bd
       0.035841726 0.029003562 0.02537128 -0.035983052
000070 c7 f2 ec 3c 00 13 17 3d 10 17 23 bd b8 79 b6 3c
       0.028924359 0.036883354 -0.039816916 0.022274837
000080 32 25 3d bc 82 a5 57 bd da 40 27 bc ef ff 11 bd
       -0.011544513 -0.052648075 -0.010208333 -0.035644468
000090 3e 01 95 bc 83 1a ca 3c da de 54 3d 6b 06 08 bd
       -0.018189069 0.024670845 0.05197034 -0.033209246
0000a0 58 62 e7 bc df a6 0a 3c eb 9f d6 3b 0d 11 c7 3c
       -0.028245136 0.008462637 0.0065498254 0.024300123
0000b0 f6 e9 0e bc a5 ef 33 bd 00 bb 2c bd c6 85 b0 3c
       -0.008722773 -0.043929715 -0.042170525 0.021548163
0000c0 83 e1 95 3d e8 92 e0 3c ad 2d 0c bd 42 f9 ca 3b
       0.073184036 0.0274138 -0.034223247 0.0061942646
0000d0 07 0c 04 3d 50 f0 d2 bc 87 1d b4 3c b4 7c 05 3d
       0.032238033 -0.025749356 0.021986736 0.03258963
0000e0 d4 c2 ed bc 2c e6 6a 3c 15 a8 44 3c 78 d2 1d 3b
       -0.029023565 0.014337104 0.0120029645 0.0024081748
0000f0 7b d5 27 3b 09 30 54 3c cf 3d 9b 3c aa 5e 43 bc
       0.0025609422 0.012950906 0.018950371 -0.011924425

arith.constant12 f4 [192]
000000 3b 6d 2d 3e 75 5d e3 3d aa f2 96 3c e3 79 2e bd
       0.169362 0.1110181 0.018426258 -0.04259671
000010 4b c9 eb bd 17 d6 1c bd bc 5a 2c be dd da 9e 3d
       -0.11513003 -0.03829011 -0.16831487 0.077565886
000020 79 e5 29 3e 12 db 46 be 6e a4 df 3d 3f 17 89 ba
       0.16591443 -0.19419506 0.10920034 -0.0010459198
000030 23 1b 22 3e 67 87 8f bd 24 db 4f 3d 74 50 0e be
       0.15830664 -0.07008248 0.0507461 -0.13897878
000040 bf 99 0e 3e 3a db 29 3d 2a d6 60 3d 4c f6 ff bd
       0.13925837 0.041468836 0.054891743 -0.12498149
000050 a2 3f 8d bd f9 8e 19 be ce ca 65 3d 0a 35 f2 bd
       -0.068969026 -0.14995946 0.056101613 -0.11826523
000060 53 4e b5 3c 37 e2 48 bc f0 e1 59 bd e8 4a 95 3d
       0.022132074 -0.012260965 -0.053193986 0.07289678
000070 ed d6 10 bc b4 44 20 bd 97 e3 92 3d 1b 49 3c bd
       -0.008840305 -0.03912802 0.071723156 -0.045968156
000080 d0 80 3a 3d f8 fe b3 bd 8a 7c d1 bd ec 0f b2 3d
       0.045533 -0.08788866 -0.10228832 0.08694443
000090 0a 32 6a 3c 72 24 95 bb 34 26 db 3c 27 44 36 be
       0.014294157 -0.0045514638 0.026751615 -0.17799436
0000a0 a5 12 ed bc ed 11 a6 3c 7d 87 4f be 10 c3 23 bd
       -0.028939554 0.02027222 -0.20266528 -0.039980948
0000b0 34 4d 28 bc 43 1e 25 3d cd 26 89 be c8 a0 06 be
       -0.010272313 0.040312063 -0.26787415 -0.1314727
0000c0 cd a8 cc 3c 0b 7e 23 3e 76 af a3 3d f7 f8 0e bd
       0.024982834 0.1596605 0.07992451 -0.0349054
0000d0 f3 c9 92 3d 96 11 2c 3e 26 65 48 3e 70 9e 18 be
       0.07167425 0.16803584 0.19569835 -0.14904189
0000e0 ac 23 10 3e c9 af 20 3e 6d 4f e8 bd 2b 13 44 3e
       0.14076108 0.15692057 -0.11343274 0.19147937
0000f0 5c 72 c1 3e 9d bb b4 3e d5 0b 91 3d 29 e7 1c 3e
       0.37782562 0.35299388 0.07082335 0.15322556
000100 68 a3 40 be 5a fd 24 be b5 84 43 bd b8 d2 04 3e
       -0.18812335 -0.16112271 -0.04773398 0.12971008
000110 45 88 95 3d 04 53 c6 3a 95 85 4a 3c e6 ba bc 3d
       0.07301382 0.0015130942 0.01236095 0.092153355
000120 ee 12 40 3c 53 0d 25 bd b8 af 9b bc a4 9e c3 3d
       0.011723263 -0.04029591 -0.019004688 0.09551743
000130 72 11 11 3e d3 91 3c bd 54 86 b6 bd cf ca 88 3d
       0.14166811 -0.046037506 -0.0891234 0.06679308
000140 9e 01 2d 3d 3d 7b 5e bc 5e 2f 83 3c 4c c6 41 bd
       0.04223787 -0.013579187 0.016013797 -0.04730825
000150 fc 0c ab bd 11 b0 06 3e 5b 17 00 3d 87 ac bf bd
       -0.08352086 0.13153102 0.031272274 -0.09359079
000160 1a 8b d9 3c 4f 71 24 3d 49 83 67 3e 61 6a a9 bd
       0.026555587 0.040147122 0.22608675 -0.08272243
000170 0c 6e ea 3a 10 fb 02 3e a7 83 e9 3d f7 8e 4c be
       0.001788558 0.12791085 0.11402064 -0.19976412
000180 15 c2 87 3e 66 1b 79 be 6c a8 7d 3d fd be be 3d
       0.2651526 -0.24326858 0.061928198 0.09313772
000190 04 0f 85 3d 29 ed 06 3e 0f ba 83 bc e6 e9 bc bc
       0.06497005 0.13176407 -0.01607993 -0.02306075
0001a0 39 e3 72 3e 07 46 5a 3c 38 dd e4 bd c0 d8 06 be
       0.23719491 0.01332236 -0.11175007 -0.13168621
0001b0 39 fc 67 3c 84 a9 49 3d 08 e1 35 3d 10 75 6b 3d
       0.014159256 0.04923393 0.04440406 0.057484686
0001c0 d0 41 8d 3c 76 b8 b2 3d 2d 5d cc bd e2 1e e3 bd
       0.017243296 0.087265894 -0.09978709 -0.11089875
0001d0 f8 57 65 3d 0a 19 ee bd 72 04 30 bd ed a8 7c bd
       0.055992097 -0.116258696 -0.04297299 -0.061684538
0001e0 84 dc bc bd b7 6f 9f 3d f1 81 e1 bd dd 5b b2 bc
       -0.092217475 0.0778498 -0.110111125 -0.02177232
0001f0 05 9c eb ba 9d 12 46 3e b7 6b a3 bc f2 1e 28 3e
       -0.0017975575 0.19343038 -0.019948823 0.16418055
000200 36 09 64 bd f5 69 17 3d eb fe 42 3e 4e 8e 7e bd
       -0.055672847 0.036966283 0.19042556 -0.06214743
000210 db 8d f4 bc 6d 37 4b bd 48 ed 25 be 1c 63 27 be
       -0.029852798 -0.049613405 -0.16203797 -0.16346401
000220 b6 ee 9c 3b 00 f6 9a bd 47 07 96 bd a7 f3 96 bc
       0.0047891987 -0.07566452 -0.07325607 -0.01842673
000230 bd c0 6e bd 93 da 6b 3d ba 28 0f be c5 48 51 bd
       -0.05828928 0.057581495 -0.1398038 -0.05109479
000240 1c cc 9d be 50 17 88 be e7 30 7b 3e 7b be a1 bd
       -0.30819786 -0.26580286 0.24530374 -0.078976594
000250 35 a9 24 bd 8d c4 0e be a6 a4 a1 be d6 08 17 3d
       -0.04020043 -0.13942166 -0.3157093 0.03687366
000260 03 50 d0 bd 52 c9 2d be 8f 9c 0e 3e 1e f9 5a bd
       -0.10171511 -0.16971329 0.1392691 -0.053460233
000270 ef 66 53 3e b4 94 76 be a3 21 71 be 46 ed 25 3e
       0.20644735 -0.24080163 -0.23547988 0.16203794
000280 cb d2 26 bd ef 92 89 3d fb ad 52 3e 1b 21 17 3e
       -0.04072837 0.067174785 0.20574181 0.14758722
000290 2e e0 c6 bd bf 7e 10 b8 07 62 bb 3c 8c 98 80 3d
       -0.09710728 -3.4450317e-05 0.022873892 0.06279096
0002a0 d8 cc bf 3d 60 ad 16 be b2 1b c6 3d f7 7d 6c 3e
       0.09365243 -0.14714575 0.09673251 0.23094927
0002b0 6e 6a 43 bd ff 91 6a be f8 28 d0 b9 10 6e dd 3c
       -0.04770892 -0.22907256 -0.00039703376 0.027030021
0002c0 56 f9 ad 3c 21 8d 83 be 72 4e cc bd 78 cd 4d 3e
       0.021237057 -0.2569361 -0.099759 0.20097911
0002d0 3c 2e 8c 3d c6 02 3d 3e a3 1e e2 bd 7d 39 c9 3c
       0.06844756 0.18458089 -0.11041 0.024563545
0002e0 cf db 6c bc 86 a7 b4 bd f4 6b b0 be 95 9b 94 bd
       -0.014456703 -0.08821015 -0.34457362 -0.072562374
0002f0 aa eb 00 3d b1 8f 59 3b c6 81 f6 bd 16 7f aa 3c
       0.031474747 0.003319722 -0.12036471 0.020812552

arith.constant13 f4 [64]
000000 87 56 15 3d f9 b5 75 3e aa 54 88 3d b2 20 9e bc
       0.036459472 0.23995198 0.066567734 -0.0193027
000010 87 82 f7 3d d0 a0 83 3e 97 b0 c5 bd f3 40 44 bd
       0.12085443 0.25708628 -0.096528225 -0.047913503
000020 be df 27 be 21 e1 a6 3c 91 ea 29 be db b5 9f ba
       -0.16393945 0.020371022 -0.16593386 -0.0012184934
000030 84 f3 6c be 7e d3 2e be 92 f0 1b 3e 5a 96 9c 3c
       -0.23139769 -0.17072865 0.15228489 0.019114662
000040 2e fe 91 3e 93 aa 6b bd 30 7c 0e be bb b9 03 be
       0.28514236 -0.05753572 -0.13914561 -0.1286382
000050 3b 46 7f 3e c0 32 8d 3d f3 a0 48 3d 2a 6f 26 be
       0.24929135 0.068944454 0.048981618 -0.16253343
000060 cb e2 5a 3e bc 57 82 3e eb 04 2c 3e 29 c7 16 3d
       0.21375577 0.2545756 0.16798751 0.036811028
000070 dd 05 27 be db f3 2b bc f6 b4 a8 bd 93 ae f0 bd
       -0.1631083 -0.010495151 -0.082376406 -0.117520474
000080 72 97 e6 3d b1 ee b7 bd 3c 7a 44 3e 87 b5 73 be
       0.11259355 -0.08981074 0.19187254 -0.23799716
000090 1e a4 6c be 6d c8 9f 3d 21 e5 65 3e 1e 76 2d be
       -0.2310948 0.078019 0.22450687 -0.1693959
0000a0 48 19 db bd 2f bb 20 be e2 9f d8 bc 20 7f 20 3e
       -0.106981814 -0.15696405 -0.026443426 0.15673494
0000b0 fd 63 20 be 3a 03 a5 3d ea 9e b7 3c 8e 54 c0 3d
       -0.15663143 0.08057256 0.022414643 0.093911275
0000c0 2c a5 86 3e 3f d2 19 3e 69 56 9b bd ef bb 1b 3c
       0.2629789 0.15021609 -0.07584841 0.009505256
0000d0 e4 46 56 3e d7 96 f3 3d 36 76 da bd e0 e9 77 bd
       0.2092548 0.11894005 -0.10667078 -0.060525775
0000e0 d5 61 e0 3d d2 21 c8 3d 23 39 30 3e eb ee ca 3d
       0.1095616 0.09772076 0.17209296 0.09908851
0000f0 1e de 7f 3d a9 79 7a bc d6 ab 43 3e 1f 68 80 bd
       0.062467687 -0.015287795 0.19108519 -0.062698595

arith.constant14 i1 [64, 128]
000000 19 81 ae 6e bb e2 ed d1 24 23 b0 dc d2 4f 25 e2
       25 -127 -82 110 -69 -30 -19 -47 36 35 -80 -36 -46 79 37 -30
000010 3c 4f c1 17 48 31 0b e9 05 21 9e bb 31 0f ed d1
       60 79 -63 23 72 49 11 -23 5 33 -98 -69 49 15 -19 -47
000020 44 08 ae 3e ee c0 fa b0 53 c4 26 fb ba 53 04 fa
       68 8 -82 62 -18 -64 -6 -80 83 -60 38 -5 -70 83 4 -6
000030 28 44 14 4d 17 26 78 f4 e0 4a 40 e3 bb 2e 1c 03
       40 68 20 77 23 38 120 -12 -32 74 64 -29 -69 46 28 3
000040 2a 1f 1c 07 fb 17 0d b7 25 c1 71 1b e2 1a c9 50
       42 31 28 7 -5 23 13 -73 37 -63 113 27 -30 26 -55 80
000050 e3 09 03 70 25 60 eb 48 3a 45 f8 b4 7a f0 f1 14
       -29 9 3 112 37 96 -21 72 58 69 -8 -76 122 -16 -15 20
000060 0b fb d2 35 cc 35 9b 19 03 be c0 11 e5 e6 fd 25
       11 -5 -46 53 -52 53 -101 25 3 -66 -64 17 -27 -26 -3 37
000070 e4 03 1f 79 14 ef 68 1a dc 35 c4 2f 7d fe ea 0b
       -28 3 31 121 20 -17 104 26 -36 53 -60 47 125 -2 -22 11
000080 ff e0 1d e0 15 f6 00 fa f5 fc d6 20 fb 0b 22 5d
       -1 -32 29 -32 21 -10 0 -6 -11 -4 -42 32 -5 11 34 93
000090 1b 1e b0 1c 31 1e f8 03 c6 e3 e3 d9 13 03 ec 4b
       27 30 -80 28 49 30 -8 3 -58 -29 -29 -39 19 3 -20 75
0000a0 f4 f9 26 fa 23 1f fc fa f9 08 fe d6 64 26 08 e5
       -12 -7 38 -6 35 31 -4 -6 -7 8 -2 -42 100 38 8 -27
0000b0 04 1c e2 04 00 0e da 14 0c e6 08 2a dc 07 f4 01
       4 28 -30 4 0 14 -38 20 12 -26 8 42 -36 7 -12 1
0000c0 fe 96 1f 03 f2 0c f6 28 06 72 37 1e f4 f7 e6 2c
       -2 -106 31 3 -14 12 -10 40 6 114 55 30 -12 -9 -26 44
0000d0 3d d0 e2 19 fd 04 41 ee e9 0e 05 7f cb c2 20 ff
       61 -48 -30 25 -3 4 65 -18 -23 14 5 127 -53 -62 32 -1
0000e0 02 01 f7 01 09 43 e1 fc fa f1 66 09 c7 fd 55 23
       2 1 -9 1 9 67 -31 -4 -6 -15 102 9 -57 -3 85 35
0000f0 cf 00 24 e3 13 de 03 f0 28 11 2d ea 13 17 e3 09
       -49 0 36 -29 19 -34 3 -16 40 17 45 -22 19 23 -29 9

arith.constant15 i1 [128, 64]
000000 0f 06 f8 14 fd fc f1 11 22 7f 0c ce e8 06 f3 ff
       15 6 -8 20 -3 -4 -15 17 34 127 12 -50 -24 6 -13 -1
000010 0e 13 04 fc d2 08 00 f9 f3 3b f8 0c 08 00 f3 f7
       14 19 4 -4 -46 8 0 -7 -13 59 -8 12 8 0 -13 -9
000020 0b e2 03 14 1b 57 06 ec 17 0d 12 06 3e f4 c4 14
       11 -30 3 20 27 87 6 -20 23 13 18 6 62 -12 -60 20
000030 06 0e fe 03 fe a5 e9 f0 0c 03 f5 08 ee da 0f f5
       6 14 -2 3 -2 -91 -23 -16 12 3 -11 8 -18 -38 15 -11
000040 4b 09 32 33 17 fb 48 ad 30 61 4f 13 1f 25 1b fd
       75 9 50 51 23 -5 72 -83 48 97 79 19 31 37 27 -3
000050 30 f8 02 d3 09 e2 13 08 f9 9a 4b 4f 05 00 68 53
       48 -8 2 -45 9 -30 19 8 -7 -102 75 79 5 0 104 83
000060 a7 b7 1e b7 40 bb 25 d8 7f 42 c8 b1 1a 56 ce c9
       -89 -73 30 -73 64 -69 37 -40 127 66 -56 -79 26 86 -50 -55
000070 cc c4 04 e3 4e b2 3f dd 2f 3c 19 e7 f7 b8 36 e0
       -52 -60 4 -29 78 -78 63 -35 47 60 25 -25 -9 -72 54 -32
000080 db 07 10 58 8d d1 fe 11 8f f8 2b e5 9f eb 01 1d
       -37 7 16 88 -115 -47 -2 17 -113 -8 43 -27 -97 -21 1 29
000090 98 10 a6 19 62 f0 b0 d2 1f 1b 1d ab 17 22 a8 f9
       -104 16 -90 25 98 -16 -80 -46 31 27 29 -85 23 34 -88 -7
0000a0 97 e6 d5 84 8a d3 7f c3 3a 45 bb 38 cb 14 d2 30
       -105 -26 -43 -124 -118 -45 127 -61 58 69 -69 56 -53 20 -46 48
0000b0 c2 95 99 ee e7 50 b0 48 3f de ca eb 23 89 19 26
       -62 -107 -103 -18 -25 80 -80 72 63 -34 -54 -21 35 -119 25 38
0000c0 0b 1e eb d0 cf 14 24 dd f7 7f 21 ae e5 ec d8 cd
       11 30 -21 -48 -49 20 36 -35 -9 127 33 -82 -27 -20 -40 -51
0000d0 2d d4 d3 fc 4d 2d 3a 29 10 0d 24 fe f7 db 31 ea
       45 -44 -45 -4 77 45 58 41 16 13 36 -2 -9 -37 49 -22
0000e0 2d df e8 f1 02 f0 d5 0b dc f0 e4 2b 28 ea 08 d9
       45 -33 -24 -15 2 -16 -43 11 -36 -16 -28 43 40 -22 8 -39
0000f0 6e 28 35 1d c4 75 a9 a6 07 f9 af bb 15 e9 3c f3
       110 40 53 29 -60 117 -87 -90 7 -7 -81 -69 21 -23 60 -13

arith.constant16 i1 [64, 64]
000000 ad 30 28 ea 0a 46 a7 0b c4 03 b1 ad e6 04 29 cd
       -83 48 40 -22 10 70 -89 11 -60 3 -79 -83 -26 4 41 -51
000010 d7 be ea 0f e5 01 a4 81 30 cc 13 26 0b e8 ff 38
       -41 -66 -22 15 -27 1 -92 -127 48 -52 19 38 11 -24 -1 56
000020 15 24 d5 d9 a2 02 ca f8 59 33 f7 12 ca e5 13 fe
       21 36 -43 -39 -94 2 -54 -8 89 51 -9 18 -54 -27 19 -2
000030 b2 d2 a4 e1 09 3a fa d6 e9 3e 02 08 47 b3 ea ea
       -78 -46 -92 -31 9 58 -6 -42 -23 62 2 8 71 -77 -22 -22
000040 13 1e fe e5 2c 0b 0d eb da 0f f9 06 cf 1e 0a 05
       19 30 -2 -27 44 11 13 -21 -38 15 -7 6 -49 30 10 5
000050 fe 2e e0 f0 0a c9 c9 78 d3 15 0a d9 c3 1f 90 14
       -2 46 -32 -16 10 -55 -55 120 -45 21 10 -39 -61 31 -112 20
000060 d4 3f ef bc f3 27 a2 cd d1 c6 cb b3 b5 db 4d 2d
       -44 63 -17 -68 -13 39 -94 -51 -47 -58 -53 -77 -75 -37 77 45
000070 81 de 0e 10 d9 1f d8 44 23 28 2c d6 d6 1b bb 08
       -127 -34 14 16 -39 31 -40 68 35 40 44 -42 -42 27 -69 8
000080 da 1a e4 fc 74 c6 93 25 ca dd e1 4f 40 34 fc ed
       -38 26 -28 -4 116 -58 -109 37 -54 -35 -31 79 64 52 -4 -19
000090 ca f3 12 ba d8 05 09 fe ab cd 39 14 0b 1b c0 d2
       -54 -13 18 -70 -40 5 9 -2 -85 -51 57 20 11 27 -64 -46
0000a0 d4 a8 1e 67 06 f0 4a 36 36 5d b4 b0 44 4a de 09
       -44 -88 30 103 6 -16 74 54 54 93 -76 -80 68 74 -34 9
0000b0 9a ba 65 d6 e3 04 02 2b 50 7f f8 cd d6 c6 a9 b5
       -102 -70 101 -42 -29 4 2 43 80 127 -8 -51 -42 -58 -87 -75
0000c0 82 ca ee f6 41 cf 90 36 fa ec de 39 21 ff 12 0b
       -126 -54 -18 -10 65 -49 -112 54 -6 -20 -34 57 33 -1 18 11
0000d0 e0 26 d0 d1 b2 d6 bd cb fe 1d 0d 2d ee c0 59 39
       -32 38 -48 -47 -78 -42 -67 -53 -2 29 13 45 -18 -64 89 57
0000e0 44 0d e0 7f 27 02 f7 d4 cf 3f f9 17 f9 e8 0f fc
       68 13 -32 127 39 2 -9 -44 -49 63 -7 23 -7 -24 15 -4
0000f0 a4 2a 4d 32 de ca f5 3e cc 46 d4 0e 14 d9 2f 2f
       -92 42 77 50 -34 -54 -11 62 -52 70 -44 14 20 -39 47 47

arith.constant17 i1 [64, 128]
000000 17 d3 be 0e f5 fa ef f0 08 00 81 ec ff 16 25 e7
       23 -45 -66 14 -11 -6 -17 -16 8 0 -127 -20 -1 22 37 -25
000010 24 1e f9 11 29 30 c6 0f fe 0f c3 ef 13 1e f1 e9
       36 30 -7 17 41 48 -58 15 -2 15 -61 -17 19 30 -15 -23
000020 17 3c b3 18 fb dd ff d9 3e 04 fd f1 30 38 00 f0
       23 60 -77 24 -5 -35 -1 -39 62 4 -3 -15 48 56 0 -16
000030 13 21 f8 11 25 4d 06 e6 f4 32 23 cd ce 39 00 0d
       19 33 -8 17 37 77 6 -26 -12 50 35 -51 -50 57 0 13
000040 08 13 20 c7 f9 10 f9 da 0e d0 49 0a e7 14 b1 3f
       8 19 32 -57 -7 16 -7 -38 14 -48 73 10 -25 20 -79 63
000050 de eb 01 32 0a 35 ef 2e c9 1c 03 c9 0c eb f4 03
       -34 -21 1 50 10 53 -17 46 -55 28 3 -55 12 -21 -12 3
000060 00 06 e5 0a d1 05 c6 f9 03 e9 cb f9 ed fe f8 0f
       0 6 -27 10 -47 5 -58 -7 3 -23 -53 -7 -19 -2 -8 15
000070 b6 06 02 2f 07 c2 2a 29 d3 26 c2 f9 63 ef dd 31
       -74 6 2 47 7 -62 42 41 -45 38 -62 -7 99 -17 -35 49
000080 19 d8 20 03 02 40 12 ea dc d6 9e 02 01 fe 3d 10
       25 -40 32 3 2 64 18 -22 -36 -42 -98 2 1 -2 61 16
000090 25 1c bd 03 28 6c ce 15 ba f5 a9 ea 24 12 dd 35
       37 28 -67 3 40 108 -50 21 -70 -11 -87 -22 36 18 -35 53
0000a0 0b af 5b fb 09 18 f5 c6 18 01 ef e4 1d 3f 1d ba
       11 -81 91 -5 9 24 -11 -58 24 1 -17 -28 29 63 29 -70
0000b0 29 09 f5 06 d4 3c 04 5f fd f7 f2 a1 b6 00 09 0f
       41 9 -11 6 -44 60 4 95 -3 -9 -14 -95 -74 0 9 15
0000c0 03 ce f3 e4 d7 22 bf 06 4e 4f 4c 18 06 e8 9d 37
       3 -50 -13 -28 -41 34 -65 6 78 79 76 24 6 -24 -99 55
0000d0 27 ad f9 01 fb 00 2c e5 81 21 e9 56 fa b2 23 f9
       39 -83 -7 1 -5 0 44 -27 -127 33 -23 86 -6 -78 35 -7
0000e0 ff 06 fe c6 14 17 ce c1 fd ff 34 f6 c2 14 45 11
       -1 6 -2 -58 20 23 -50 -63 -3 -1 52 -10 -62 20 69 17
0000f0 81 05 10 17 fa a3 f9 f4 f5 33 0d c5 fa 1e df ca
       -127 5 16 23 -6 -93 -7 -12 -11 51 13 -59 -6 30 -33 -54

arith.constant18 i1 [128, 64]
000000 0d f5 ca 46 dc e8 e1 45 43 6b 1c c3 95 14 0c fc
       13 -11 -54 70 -36 -24 -31 69 67 107 28 -61 -107 20 12 -4
000010 08 e3 3a 45 c4 dd ac e1 e5 43 f6 fc 43 ee f1 e8
       8 -29 58 69 -60 -35 -84 -31 -27 67 -10 -4 67 -18 -15 -24
000020 33 a2 28 16 12 7f 1d dd da 34 fd 25 69 ee cb 30
       51 -94 40 22 18 127 29 -35 -38 52 -3 37 105 -18 -53 48
000030 5b ff e7 ef ed ca c2 f1 4b 04 eb ea c5 b1 26 c4
       91 -1 -25 -17 -19 -54 -62 -15 75 4 -21 -22 -59 -79 38 -60
000040 2e 08 14 19 14 04 26 bc 21 4b 5f 06 28 06 0c da
       46 8 20 25 20 4 38 -68 33 75 95 6 40 6 12 -38
000050 2e 02 e5 c3 e5 d3 26 15 e6 a3 3c 51 00 fa 6a 31
       46 2 -27 -61 -27 -45 38 21 -26 -93 60 81 0 -6 106 49
000060 d6 c7 1d ef 46 d6 14 db 7f 1b e2 c5 13 30 07 c7
       -42 -57 29 -17 70 -42 20 -37 127 27 -30 -59 19 48 7 -57
000070 f1 17 1b 02 5e ad 0c df fe 33 2c cc f1 d2 2d e5
       -15 23 27 2 94 -83 12 -33 -2 51 44 -52 -15 -46 45 -27
000080 f6 e6 18 5c b6 c5 05 0b b8 0b 31 dc aa e7 f8 03
       -10 -26 24 92 -74 -59 5 11 -72 11 49 -36 -86 -25 -8 3
000090 c3 07 c0 0e 69 00 b1 db 28 fe 2e b0 16 14 b3 dc
       -61 7 -64 14 105 0 -79 -37 40 -2 46 -80 22 20 -77 -36
0000a0 aa 32 d0 aa 81 de 3b de 2e 2a a2 1e cd 02 cd 3e
       -86 50 -48 -86 -127 -34 59 -34 46 42 -94 30 -51 2 -51 62
0000b0 bc b1 b9 e7 e8 4c a7 2e 4c d8 cd e5 0f 92 2c 24
       -68 -79 -71 -25 -24 76 -89 46 76 -40 -51 -27 15 -110 44 36
0000c0 26 f5 ea e3 ba 00 ed df f5 73 2c d5 f2 e9 c5 04
       38 -11 -22 -29 -70 0 -19 -33 -11 115 44 -43 -14 -23 -59 4
0000d0 fa fa f3 07 15 15 38 15 11 2d 2c ee 00 fd 20 0b
       -6 -6 -13 7 21 21 56 21 17 45 44 -18 0 -3 32 11
0000e0 05 d2 df 0a 31 dc e3 14 ce 02 06 3d 18 f4 26 ce
       5 -46 -33 10 49 -36 -29 20 -50 2 6 61 24 -12 38 -50
0000f0 33 23 1d 0c eb 7f bd ce 37 08 e4 d2 05 f9 f3 13
       51 35 29 12 -21 127 -67 -50 55 8 -28 -46 5 -7 -13 19

arith.constant19 i1 [64, 64]
000000 dc 1b 21 f3 1b 2d d8 09 d9 14 d6 d4 ed 07 10 d7
       -36 27 33 -13 27 45 -40 9 -39 20 -42 -44 -19 7 16 -41
000010 d7 d7 e5 0c ce 07 cb ca ed d5 fb fb f2 d5 02 0e
       -41 -41 -27 12 -50 7 -53 -54 -19 -43 -5 -5 -14 -43 2 14
000020 47 3b c5 cc 02 11 f7 e8 32 7f d3 3b fa f2 1b a9
       71 59 -59 -52 2 17 -9 -24 50 127 -45 59 -6 -14 27 -87
000030 cd cb c0 03 0e 2a ef ed f6 16 f5 06 25 d2 d9 ff
       -51 -53 -64 3 14 42 -17 -19 -10 22 -11 6 37 -46 -39 -1
000040 f6 4e ff d7 26 1c 12 eb ef 0f ff c5 b7 44 32 ef
       -10 78 -1 -41 38 28 18 -21 -17 15 -1 -59 -73 68 50 -17
000050 2f 6e a9 09 26 8b b7 75 e8 2e d1 da f7 5f 8a 3e
       47 110 -87 9 38 -117 -73 117 -24 46 -47 -38 -9 95 -118 62
000060 c5 6a d9 8d 05 1a a6 ad ca af 94 99 9b cb 52 53
       -59 106 -39 -115 5 26 -90 -83 -54 -81 -108 -103 -101 -53 82 83
000070 81 f3 e6 0d a2 26 c2 3e 34 10 56 a9 dd 28 a6 de
       -127 -13 -26 13 -94 38 -62 62 52 16 86 -87 -35 40 -90 -34
000080 e4 13 ef fb 4f db 95 0c ee e6 f3 29 3d 38 e1 c8
       -28 19 -17 -5 79 -37 -107 12 -18 -26 -13 41 61 56 -31 -56
000090 ae f7 11 ce b6 f9 1a 06 ad e6 38 fd fb e0 ca d4
       -82 -9 17 -50 -74 -7 26 6 -83 -26 56 -3 -5 -32 -54 -44
0000a0 ec dc 08 33 25 e3 4c 09 24 7f c5 e6 36 43 dd c7
       -20 -36 8 51 37 -29 76 9 36 127 -59 -26 54 67 -35 -57
0000b0 da cc 22 fb 07 03 13 0f 6d 40 ed c8 ea e6 c1 cd
       -38 -52 34 -5 7 3 19 15 109 64 -19 -56 -22 -26 -63 -51
0000c0 92 db 01 eb 33 de 96 16 22 eb f0 2d 23 06 e6 e5
       -110 -37 1 -21 51 -34 -106 22 34 -21 -16 45 35 6 -26 -27
0000d0 93 22 e9 c6 81 cf ee e5 c9 61 21 1b d8 85 32 13
       -109 34 -23 -58 -127 -49 -18 -27 -55 97 33 27 -40 -123 50 19
0000e0 62 4c d2 52 65 ec 29 9b de 58 0e 6e 24 e6 fd 97
       98 76 -46 82 101 -20 41 -101 -34 88 14 110 36 -26 -3 -105
0000f0 bc f7 1f 5a 13 a7 0d 37 e0 1d b7 e6 0c 05 12 28
       -68 -9 31 90 19 -89 13 55 -32 29 -73 -26 12 5 18 40

arith.constant20 i1 [64, 128]
000000 ed fc d7 df c2 ea e5 ef 3b 08 92 13 d1 12 0f d4
       -19 -4 -41 -33 -62 -22 -27 -17 59 8 -110 19 -47 18 15 -44
000010 17 2d f5 15 38 e9 bb c5 f6 e9 be e7 f4 43 d7 c0
       23 45 -11 21 56 -23 -69 -59 -10 -23 -66 -25 -12 67 -41 -64
000020 19 25 cd 1e 42 e6 06 eb 3c c8 fa dd 2b 3b 19 fe
       25 37 -51 30 66 -26 6 -21 60 -56 -6 -35 43 59 25 -2
000030 eb 12 02 12 16 29 f2 eb eb 2c 40 b1 08 5f dd da
       -21 18 2 18 22 41 -14 -21 -21 44 64 -79 8 95 -35 -38
000040 fd 29 d2 c6 07 25 20 a2 14 d2 56 fa f3 fb ab 33
       -3 41 -46 -58 7 37 32 -94 20 -46 86 -6 -13 -5 -85 51
000050 ec ef eb 5d d6 2b 04 4c c5 1e 1f e4 f6 dc 11 dd
       -20 -17 -21 93 -42 43 4 76 -59 30 31 -28 -10 -36 17 -35
000060 f5 fe e4 05 c3 f7 df df c9 d4 c1 30 db fd ec fc
       -11 -2 -28 5 -61 -9 -33 -33 -55 -44 -63 48 -37 -3 -20 -4
000070 81 28 f2 3b 4c a1 38 1b da f7 bc 09 41 e9 fe 0f
       -127 40 -14 59 76 -95 56 27 -38 -9 -68 9 65 -23 -2 15
000080 15 f9 1f d8 05 17 f8 03 e1 07 d0 fe 30 ea 05 f2
       21 -7 31 -40 5 23 -8 3 -31 7 -48 -2 48 -22 5 -14
000090 17 1f d2 11 06 fd f1 18 b3 fa d9 0c 7f fa e4 11
       23 31 -46 17 6 -3 -15 24 -77 -6 -39 12 127 -6 -28 17
0000a0 f7 c7 4a 14 07 29 f3 e6 1d fb fd 00 10 23 18 e2
       -9 -57 74 20 7 41 -13 -26 29 -5 -3 0 16 35 24 -30
0000b0 ff fe c7 d5 ae fa 0e 38 19 e5 ed 06 dc d8 0f fc
       -1 -2 -57 -43 -82 -6 14 56 25 -27 -19 6 -36 -40 15 -4
0000c0 f8 ed 0e d1 0a d1 e4 e3 22 41 3b 13 04 e7 e4 1c
       -8 -19 14 -47 10 -47 -28 -29 34 65 59 19 4 -25 -28 28
0000d0 1c d0 06 13 14 ce 0e dc d0 2e fe 4c e1 da 2f 2b
       28 -48 6 19 20 -50 14 -36 -48 46 -2 76 -31 -38 47 43
0000e0 df 15 fa 5c ea 17 f7 0a b5 ed 3b f2 07 e3 31 0f
       -33 21 -6 92 -22 23 -9 10 -75 -19 59 -14 7 -29 49 15
0000f0 df 25 0f 0d 32 bb de f4 27 07 1b c5 dd 36 f6 a1
       -33 37 15 13 50 -69 -34 -12 39 7 27 -59 -35 54 -10 -95

arith.constant21 i1 [128, 64]
000000 f3 fe c2 53 c5 01 e1 1f 45 6c f5 c1 81 0c 45 e1
       -13 -2 -62 83 -59 1 -31 31 69 108 -11 -63 -127 12 69 -31
000010 fb f9 52 35 af c5 cc da e1 25 13 2d 4c 1d 0e fa
       -5 -7 82 53 -81 -59 -52 -38 -31 37 19 45 76 29 14 -6
000020 58 b4 33 17 1a 4e d2 dd ef 10 c2 33 7c da d5 15
       88 -76 51 23 26 78 -46 -35 -17 16 -62 51 124 -38 -43 21
000030 78 03 ec e8 fd d5 ae 0a 25 21 f8 d8 aa c1 22 c2
       120 3 -20 -24 -3 -43 -82 10 37 33 -8 -40 -86 -63 34 -62
000040 11 ef 09 5c ff f4 17 dd 10 31 24 d6 e9 05 0f f4
       17 -17 9 92 -1 -12 23 -35 16 49 36 -42 -23 5 15 -12
000050 10 f6 09 f0 e8 cd 11 ea 09 cd 15 32 0e 20 77 32
       16 -10 9 -16 -24 -51 17 -22 9 -51 21 50 14 32 119 50
000060 02 b4 59 eb 0b ed f7 ed 48 0a ee cd 22 16 f9 cb
       2 -76 89 -21 11 -19 -9 -19 72 10 -18 -51 34 22 -7 -53
000070 18 fd 00 04 29 81 32 f9 16 1e 28 c1 e7 f6 10 0a
       24 -3 0 4 41 -127 50 -7 22 30 40 -63 -25 -10 16 10
000080 e9 0d 3b 62 b9 ce e9 4a ac df 4b f0 b1 ee d3 16
       -23 13 59 98 -71 -50 -23 74 -84 -33 75 -16 -79 -18 -45 22
000090 e6 17 93 0e 6b ee b4 ee 29 2d 4e 89 14 0d 9b ca
       -26 23 -109 14 107 -18 -76 -18 41 45 78 -119 20 13 -101 -54
0000a0 b2 0b a6 92 91 0b 7a f4 1a f2 8f 1a bf d5 9d 4f
       -78 11 -90 -110 -111 11 122 -12 26 -14 -113 26 -65 -43 -99 79
0000b0 bc c1 98 f1 ce 4e be 12 2e b0 a5 f1 0d 81 2d 1c
       -68 -63 -104 -15 -50 78 -66 18 46 -80 -91 -15 13 -127 45 28
0000c0 4d 11 b9 5e cb dd e2 dd 16 62 e8 f8 ac e0 ea c5
       77 17 -71 94 -53 -35 -30 -35 22 98 -24 -8 -84 -32 -22 -59
0000d0 c3 53 57 56 c8 cf 0e f2 f8 12 22 f6 4b 01 4d ea
       -61 83 87 86 -56 -49 14 -14 -8 18 34 -10 75 1 77 -22
0000e0 3e e9 1c 3f 56 ce ec 3c c8 41 ac 44 5d cd 38 e8
       62 -23 28 63 86 -50 -20 60 -56 65 -84 68 93 -51 56 -24
0000f0 71 b7 61 06 b6 3f 8f c2 1d ef ce 81 cc e1 f0 b0
       113 -73 97 6 -74 63 -113 -62 29 -17 -50 -127 -52 -31 -16 -80

arith.constant22 i1 [64, 64]
000000 e5 49 ed e0 15 3e 96 fd b5 fd b4 8c 00 1e 0f ca
       -27 73 -19 -32 21 62 -106 -3 -75 -3 -76 -116 0 30 15 -54
000010 ac 81 3f fa cd ed a2 fd d8 f5 33 00 fe c3 d0 52
       -84 -127 63 -6 -51 -19 -94 -3 -40 -11 51 0 -2 -61 -48 82
000020 f7 26 c1 e9 8f ec 8b 0b 6a 3a cb 32 d8 0a 18 ee
       -9 38 -63 -23 -113 -20 -117 11 106 58 -53 50 -40 10 24 -18
000030 ba b3 9a ff 30 49 09 c8 e4 33 03 f0 3b dd d7 cc
       -70 -77 -102 -1 48 73 9 -56 -28 51 3 -16 59 -35 -41 -52
000040 2d 54 0b 00 4c fe 4e e5 b4 3c 1d dd d6 38 10 f9
       45 84 11 0 76 -2 78 -27 -76 60 29 -35 -42 56 16 -7
000050 f3 1a f1 ed ff a2 d6 55 ee f8 1e ee b8 0b aa 27
       -13 26 -15 -19 -1 -94 -42 85 -18 -8 30 -18 -72 11 -86 39
000060 91 fc c9 e6 c5 ef 81 e5 fe eb b0 e8 b0 07 3b 3d
       -111 -4 -55 -26 -59 -17 -127 -27 -2 -21 -80 -24 -80 7 59 61
000070 cd ce fe 0d df 22 d8 15 27 07 17 dc ff 3d cf 02
       -51 -50 -2 13 -33 34 -40 21 39 7 23 -36 -1 61 -49 2
000080 b4 00 df 1b 55 dd 8a 1e b6 d6 dc ed 77 7a d5 b7
       -76 0 -33 27 85 -35 -118 30 -74 -42 -36 -19 119 122 -43 -73
000090 a5 ff e0 c8 c5 15 16 a8 ca 99 5d c9 16 fd ee 81
       -91 -1 -32 -56 -59 21 22 -88 -54 -103 93 -55 22 -3 -18 -127
0000a0 b9 c0 59 69 02 f4 48 71 54 39 c3 b0 5c 50 c5 fb
       -71 -64 89 105 2 -12 72 113 84 57 -61 -80 92 80 -59 -5
0000b0 e6 c8 58 c3 b2 26 f0 29 1f 34 00 c2 e3 f1 ee a9
       -26 -56 88 -61 -78 38 -16 41 31 52 0 -62 -29 -15 -18 -87
0000c0 af e4 1d bd 10 b4 81 f2 10 bc e3 57 43 04 ee 1b
       -81 -28 29 -67 16 -76 -127 -14 16 -68 -29 87 67 4 -18 27
0000d0 96 21 00 97 c1 e1 df b9 15 1c 52 0f e9 9d 36 03
       -106 33 0 -105 -63 -31 -33 -71 21 28 82 15 -23 -99 54 3
0000e0 72 70 0b 38 54 31 32 cd 38 fb 24 4a 5f c7 0e 94
       114 112 11 56 84 49 50 -51 56 -5 36 74 95 -57 14 -108
0000f0 d3 f7 4e 22 d8 d5 cb 49 8f 31 cf 0b 16 1a 36 1b
       -45 -9 78 34 -40 -43 -53 73 -113 49 -49 11 22 26 54 27
