Fold3_NoDistill_best_loss_weights.pth (torch, 424498 bytes, 42 tensors)

time2vec.per_weight f4 [15]
-0.3052814 -2.6370041 -0.24409781 0.69255316 0.94578147 0.79258204 -0.13378061 -2.3948376
-1.3502883 1.0267849 0.7235327 -1.0874336 1.1228325 0.27930504 -2.5728486
00000000: d84d 9cbe adc4 28c0 c7f4 79be 2a4b 313f
00000010: bc1e 723f a8e6 4a3f c9fd 08be 0545 19c0
00000020: 3fd6 acbf b06d 833f 7039 393f 0631 8bbf
00000030: fab8 8f3f 1201 8f3e 8da9 24c0

time2vec.per_bias f4 [15]
-0.25043437 -1.0592287 -0.005978594 0.4282273 1.6178225 1.1455194 -0.24888135 0.16053137
0.36791438 -0.18818484 -1.6942648 -0.17887247 -1.6603724 -0.9886989 -2.3375475
00000000: ef38 80be ce94 87bf 15e8 c3bb 9c40 db3e
00000010: cf14 cf3f 61a0 923f c1da 7ebe 5662 243e
00000020: 465f bc3e 87b3 40be abdd d8bf 582a 37be
00000030: 1587 d4bf 5f1b 7dbf 619a 15c0

input_proj.weight f4 [64, 19]
-0.0512124 -0.10882592 0.16733932 -0.0888165 0.049989555 0.056491997 0.18118428 -0.018657928
-0.3350953 -0.26214516 0.12204755 -0.23038216 0.31277695 -0.016810413 -0.17216398 0.3086591
0.052207652 0.1446405 0.12230654 0.11508844 0.12217576 -0.052255433 -0.16838898 -0.045143344
-0.095751464 -0.13814166 -0.12949397 -0.28701496 0.14519213 -0.22389929 0.20000571 -0.15947258
0.066679336 -0.21974558 -0.19950546 0.058870498 -0.03559327 0.039310507 0.17601192 -0.18335742
0.09787182 -0.0110724075 0.08643061 -0.1308626 0.07333865 -0.23808332 -0.044114027 -0.21301009
0.04449127 -0.09126889 0.17969467 0.016289562 0.04855966 0.031807613 -0.071400955 -0.23717895
-0.085400805 0.09729359 0.08725052 0.26896974 0.15397668 0.019705439 -0.10895653 -0.18185368
0.27888784 -0.18081482 0.21753393 -0.11467605 0.19464493 -0.03741685 0.12332539 0.21036242
-0.23033525 -0.14091183 0.24141528 -0.23513415 -0.077653475 -0.08760513 0.13740604 -0.051365815
0.044085525 0.10854864 0.025538854 -0.24624218 0.08228642 -0.0697871 0.16681819 0.116850644
0.20292097 0.03132244 -0.21344538 -0.009591597 0.023671225 0.07209756 0.15862001 0.093728185
0.048649836 -0.1637289 -0.13335054 -0.16430776 -0.0110355 -0.021016305 0.15486312 -0.2508994
-0.016170768 0.02850416 0.16539636 -0.18483424 0.29791534 -0.012359398 -0.030147461 0.19225818
0.058614757 -0.061848816 0.14800084 -0.017940136 -0.16739985 -0.16706613 -0.13458756 -0.19031847
-0.26907253 0.14076482 -0.23043574 -0.29606396 -0.2139708 -0.041471045 0.24800844 0.17769298
-0.19973233 0.040788364 0.020786993 -0.18834285 0.03311627 0.15299621 -0.110636875 0.07158568
-0.102726094 -0.009905817 -0.10398368 -0.020698728 -0.10312753 -0.047801062 0.16549943 -0.05153156
0.23320149 0.18305738 -0.08268186 -0.0535363 0.12247849 0.17053322 0.042528436 -0.14589225
0.115524605 0.038592223 0.09314245 0.062015627 -0.1421653 -0.19393975 -0.11373763 -0.25264734
0.097058244 -0.26256424 -0.051917415 -0.15875135 0.21066166 0.07833103 0.31694686 -0.10132545
0.15236369 0.033621553 -0.18701357 0.042614974 -0.04151092 -0.23269075 0.096123844 -0.15255325
0.09583182 -0.07064824 0.06053347 -0.061327636 -0.269533 0.10644893 0.1534627 0.28363648
0.106669016 0.040380757 0.18857174 0.13155201 0.16687123 0.16429232 -0.13731787 -0.13128342
-0.03393001 0.055910703 -0.07906837 -0.16347039 -0.11339184 -0.110188015 -0.04065159 -0.027032496
-0.16128595 0.09905934 0.29237548 -0.118049204 -0.08397695 0.21470825 0.0064886804 -0.04377082
-0.26371607 -0.1440281 0.1996356 0.14176805 0.024093479 -0.14491491 -0.11802523 -0.0667839
0.3306721 -0.2607739 -0.025755133 0.08393458 -0.14515492 -0.24832654 0.0076134373 0.1198112
-0.12522925 -0.066623576 0.2224829 -0.03485048 -0.032258675 -0.13032529 -0.14861417 -0.07010849
0.06125847 -0.04145358 -0.019195937 0.24437994 0.20027354 0.11719682 0.13222307 -0.014594378
0.015875794 0.04652728 0.009449812 -0.26428938 -0.02455432 -0.02035453 -0.09715035 0.08844016
0.032083936 0.13688223 -0.118802436 -0.03217522 0.1928131 0.30028325 -0.05125145 0.30021963
00000000: 18c4 51bd 20e0 debd 005b 2b3e 6de5 b5bd
00000010: d9c1 4c3d 2764 673d 5f88 393e 83d8 98bc
00000020: 9c91 abbe e437 86be 11f4 f93d 4de9 6bbe
00000030: 4d24 a03e feb5 89bc c14b 30be 9108 9e3e
00000040: b1d7 553d a41c 143e da7b fa3d 7db3 eb3d
00000050: 4937 fa3d cb09 56bd 296e 2cbe 3ae8 38bd
00000060: 5819 c4bd 0275 0dbe 119a 04be a0f3 92be
00000070: 3fad 143e db45 65be 4cce 4c3e c84c 23be
00000080: 2d8f 883d fc04 61be 294b 4cbe 3122 713d
00000090: 40ca 11bd 0e04 213d 783c 343e 0cc2 3bbe
000000a0: 0571 c83d 0b69 35bc 8802 b13d d800 06be
000000b0: 9332 963d 1dcc 73be e9b0 34bd 511f 5abe
000000c0: 7a3c 363d 2feb babd e101 383e b071 853c
000000d0: 7ee6 463d b348 023d aa3a 92bd 0adf 72be
000000e0: 9ee6 aebd dd41 c73d 67b0 b23d 67b6 893e
000000f0: 10ac 1d3e 4d6d a13c 9a24 dfbd da37 3abe
00000100: 63ca 8e3e 8527 39be 37c1 5e3e 47db eabd
00000110: 0051 473e 6942 19bd 0692 fc3d 3f69 573e
00000120: 01dd 6bbe 314b 10be 9135 773e 02c7 70be
00000130: c908 9fbd 526a b3bd 2bb4 0c3e f664 52bd
00000140: 0693 343d c04e de3d dc36 d13c e926 7cbe
00000150: c885 a83d 8aec 8ebd 63d2 2a3e 644f ef3d
00000160: 84ca 4f3e f54b 003d 6d91 5abe 1326 1dbc
00000170: 28ea c13c e3a7 933d 496d 223e 90f4 bf3d
00000180: 0d45 473d 8ca8 27be 0b8d 08be 4b40 28be
00000190: 3ece 34bc 632a acbc 7094 1e3e e375 80be
000001a0: 8f78 84bc 8e81 e93c aa5d 293e 3045 3dbe
000001b0: 5c88 983e 137f 4abc cff7 f6bc 54df 443e
000001c0: 0716 703d 2f55 7dbd 888d 173e 31f7 92bc
000001d0: de6a 2bbe 6213 2bbe 52d1 09be d8e2 42be
000001e0: e0c3 89be a724 103e 59f7 6bbe b295 97be
000001f0: 291b 5bbe 8bdd 29bd edf5 7d3e 26f5 353e
00000200: a286 4cbe b311 273d 7c49 aa3c f3dc 40be
00000210: eda4 073d 0aab 1c3e 9695 e2bd 839b 923d
00000220: 0f62 d2bd 024c 22bc 65f5 d4bd 6190 a9bc
00000230: 8734 d3bd 0ccb 43bd af78 293e c212 53bd
00000240: 5fcc 6e3e 6573 3b3e 1b55 a9bd e148 5bbd
00000250: 01d6 fa3d 43a0 2e3e 4c32 2e3d c764 15be
00000260: 2a98 ec3d e112 1e3d 78c1 be3d 1904 7e3d
00000270: c893 11be 2498 46be 46ef e8bd fe5a 81be
00000280: 79c6 c63d d26e 86be 5ba7 54bd b78f 22be
00000290: b1b7 573e 056c a03d dc46 a23e b883 cfbd
000002a0: 3a05 1c3e c1b6 093d 7c80 3fbe 0a8d 2e3d
000002b0: 5b07 2abd 7c46 6ebe 94dc c43d eb36 1cbe
000002c0: 7943 c43d 06b0 90bd f2f1 773d b032 7bbd
000002d0: 3b00 8abe e601 da3d 5325 1d3e cd38 913e
000002e0: 4975 da3d 4b66 253d f318 413e 92b5 063e
000002f0: 4be0 2a3e 3f3c 283e 0e9d 0cbe 296f 06be
00000300: 32fa 0abd 9f02 653d 99ee a1bd c864 27be
00000310: fb39 e8bd 41aa e1bd 4882 26bd 4173 ddbc
00000320: 2528 25be a0df ca3d 3db2 953e c8c3 f1bd
00000330: 1bfc abbd 7bdc 5b3e ff9e d43b 0849 33bd
00000340: cb05 87be 1a7c 13be 466d 4c3e a52b 113e
00000350: b05f c53c 9364 14be 36b7 f1bd ffc5 88bd
00000360: da4d a93e 2884 85be 6efc d2bc e5e5 ab3d
00000370: 7ea3 14be 5049 7ebe 247a f93b 935f f53d
00000380: 193c 00be f171 88bd 8fd2 633e 60bf 0ebd
00000390: ac21 04bd fe73 05be 502e 18be 0a95 8fbd
000003a0: 29ea 7a3d 3bcb 29bd cc40 9dbc bc3e 7a3e
000003b0: 8214 4d3e e304 f03d 7c65 073e 421d 6fbc
000003c0: f40d 823c 6493 3e3d 62d3 1a3c f050 87be
000003d0: 2426 c9bc 8bbe a6bc c3f6 c6bd 1d20 b53d
000003e0: 726a 033d db2a 0c3e b14e f3bd 2aca 03bd
000003f0: cc70 453e babe 993e 0aed 51bd 63b6 993e

input_proj.bias f4 [64]
0.036459472 0.23995198 0.066567734 -0.0193027 0.12085443 0.25708628 -0.096528225 -0.047913503
-0.16393945 0.020371022 -0.16593386 -0.0012184934 -0.23139769 -0.17072865 0.15228489 0.019114662
0.28514236 -0.05753572 -0.13914561 -0.1286382 0.24929135 0.068944454 0.048981618 -0.16253343
0.21375577 0.2545756 0.16798751 0.036811028 -0.1631083 -0.010495151 -0.082376406 -0.117520474
0.11259355 -0.08981074 0.19187254 -0.23799716 -0.2310948 0.078019 0.22450687 -0.1693959
-0.106981814 -0.15696405 -0.026443426 0.15673494 -0.15663143 0.08057256 0.022414643 0.093911275
0.2629789 0.15021609 -0.07584841 0.009505256 0.2092548 0.11894005 -0.10667078 -0.060525775
0.1095616 0.09772076 0.17209296 0.09908851 0.062467687 -0.015287795 0.19108519 -0.062698595
00000000: 8756 153d f9b5 753e aa54 883d b220 9ebc
00000010: 8782 f73d d0a0 833e 97b0 c5bd f340 44bd
00000020: bedf 27be 21e1 a63c 91ea 29be dbb5 9fba
00000030: 84f3 6cbe 7ed3 2ebe 92f0 1b3e 5a96 9c3c
00000040: 2efe 913e 93aa 6bbd 307c 0ebe bbb9 03be
00000050: 3b46 7f3e c032 8d3d f3a0 483d 2a6f 26be
00000060: cbe2 5a3e bc57 823e eb04 2c3e 29c7 163d
00000070: dd05 27be dbf3 2bbc f6b4 a8bd 93ae f0bd
00000080: 7297 e63d b1ee b7bd 3c7a 443e 87b5 73be
00000090: 1ea4 6cbe 6dc8 9f3d 21e5 653e 1e76 2dbe
000000a0: 4819 dbbd 2fbb 20be e29f d8bc 207f 203e
000000b0: fd63 20be 3a03 a53d ea9e b73c 8e54 c03d
000000c0: 2ca5 863e 3fd2 193e 6956 9bbd efbb 1b3c
000000d0: e446 563e d796 f33d 3676 dabd e0e9 77bd
000000e0: d561 e03d d221 c83d 2339 303e ebee ca3d
000000f0: 1ede 7f3d a979 7abc d6ab 433e 1f68 80bd

encoder.layers.0.self_attn.in_proj_weight f4 [192, 64]
0.07674017 0.19470546 0.12398622 0.037015747 -0.056021675 0.11435537 0.069355965 0.12304238
0.003455846 0.045523018 -0.004788139 -0.12052028 -0.11921875 -0.070898555 -0.020485241 0.04642215
0.0402201 0.06543635 0.092297435 0.13075578 -0.02143344 0.10323351 0.008962156 0.07441319
-0.01710907 0.12315607 0.105091 0.025221845 -0.017428907 -0.13310252 0.10033434 -0.088037014
0.1325137 0.05720585 -0.10182414 -0.052528623 0.010790356 -0.029776428 0.074745364 0.08445032
-0.0073647373 -0.06340567 -0.07920989 0.17496395 0.22777346 0.03919198 -0.01754753 0.04247027
0.015896432 -0.040151637 -0.15529929 -0.16230085 -0.012488124 -0.13733058 -0.049128324 0.11833362
-0.0050468515 -0.06496844 -0.09198989 0.11556384 0.08451384 -0.017160831 0.15307063 0.052575346
-0.04019194 0.08389232 -0.056478146 0.007979038 -0.14626041 0.17705175 0.08166469 0.10918638
-0.034158185 -0.07735138 0.02436378 -0.11807575 -0.024982125 -0.058759555 0.010364242 -0.03927838
0.011544853 0.03948203 0.017114464 0.13843085 0.06608961 0.010790693 -0.11793662 0.06421243
-0.12840213 0.05923027 -0.01889623 0.05264322 -0.08354528 -0.08879715 -0.010678188 0.044341985
0.049222104 -0.03850533 -0.077176444 0.07325625 0.0390053 0.026895437 0.07719996 0.07111852
-0.018243013 -0.103004575 -0.064926624 0.18724729 0.06905283 0.016146285 0.008381459 0.081046395
0.0867361 0.08791887 -0.12507689 -0.0025205922 0.084120505 0.027589165 -0.08957822 0.014183259
0.0064227884 0.055699926 -0.073720664 0.065647006 0.0324339 0.11987601 -0.04072657 0.0004069641
0.1387206 0.0978951 -0.02307762 0.11348257 -0.0027736018 0.09565551 0.010523385 0.11295796
0.09981846 0.031089863 -0.049827017 -0.09245296 0.015953615 0.047905367 0.031302873 -0.026458874
0.021091035 0.012344463 0.023151604 -0.03641673 -0.06404131 -0.02119608 0.0029798453 -0.016727228
-0.015320932 -0.044827014 0.069807984 -0.046339788 -0.028926225 -0.03582051 0.06263217 -0.04050125
-0.06144819 -0.040094044 -0.00044027454 -0.028818911 -0.031751446 -0.056529135 0.042626172 0.103371285
-0.020872096 0.034699358 -0.02231851 0.082157224 0.055615347 -0.057282533 -0.04611041 0.11424784
-0.0047768713 0.030410307 -0.119146414 -0.03741379 -0.0832996 -0.06869626 0.037814286 -0.059997156
0.031864613 0.028407723 -0.116118014 -0.019402519 -0.10390286 0.015021671 0.12056022 0.06281503
-0.004844749 -0.10746095 -0.06989221 -0.04852135 -0.072577044 0.09653739 -0.021408537 0.07253751
0.12809783 -0.024833504 -0.09280571 0.093762316 -0.037661705 -0.006425607 0.07694372 -0.07588322
-0.07559249 0.006594765 0.053872056 -0.03999533 -0.0027770088 -0.029162912 0.015248908 0.06269247
-0.105094284 -0.053596247 0.024554064 -0.11119534 0.1255351 -0.030561874 -0.025182366 -0.008079984
-0.057749484 0.07631763 -0.027183985 -0.07281704 0.10457543 -0.062427353 0.012231308 0.052784845
0.08413474 -0.072650515 -0.067065395 0.07252632 -0.15571982 -0.015885368 -0.056776825 0.115324676
0.03543155 -0.0011025126 -0.017578121 -0.072197415 -0.115243815 -0.0019970972 0.025568334 -0.01930462
0.01623966 0.09258193 0.030958997 0.008665745 0.11509376 0.030764652 -0.10423837 -0.03534919
00000000: f329 9d3d de60 473e 7dec fd3d d39d 173d
00000010: fc76 65bd 2633 ea3d 800a 8e3d a5fd fb3d
00000020: 7a7b 623b 5876 3a3d d2e5 9cbb 56d3 f6bd
00000030: f628 f4bd 4333 91bd aad0 a7bc 2725 3e3d
00000040: d5bd 243d 7e03 863d 7006 bd3d d8e4 053e
00000050: 2e95 afbc 176c d33d 02d6 123c f165 983d
00000060: 5228 8cbc 4039 fc3d f339 d73d 0b9e ce3c
00000070: 11c7 8ebc 074c 08be 177c cd3d c04c b4bd
00000080: acb1 073e ae50 6a3d 2d89 d0bd 4128 57bd
00000090: 09ca 303c b2ed f3bc 1914 993d 4af4 ac3d
000000a0: e553 f1bb d5da 81bd cb38 a2bd c029 333e
000000b0: 723d 693e c587 203d d6bf 8fbc 4ef5 2d3d
000000c0: 3c39 823c 0b76 24bd c706 1fbe 3232 26be
000000d0: fd9a 4cbc 63a0 0cbe c83a 49bd e658 f23d
000000e0: 0f60 a5bb 2c0e 85bd 3265 bcbd bcac ec3d
000000f0: 9815 ad3d df94 8cbc 8cbe 1c3e 3f59 573d
00000100: 4ea0 24bd bdcf ab3d a155 67bd 83ba 023c
00000110: 4ac5 15be 0e4d 353e d13f a73d 1c9d df3d
00000120: 74e9 0bbd 666a 9ebd 8d96 c73c b3d1 f1bd
00000130: 50a7 ccbc dcad 70bd c8ce 293c 5ee2 20bd
00000140: a026 3d3c e9b7 213d a233 8c3c d1c0 0d3e
00000150: fd59 873d 72cb 303c c188 f1bd ce81 833d
00000160: d97b 03be 719b 723d 44cc 9abc 6ba0 573d
00000170: ca19 abbd 48db b5bd 91f3 2ebc f19f 353d
00000180: 1e9d 493d c4b7 1dbd af0e 9ebd 5f07 963d
00000190: 05c4 1f3d d253 dc3c 031b 9e3d 96a6 913d
000001a0: 5f72 95bc 10f4 d2bd 40f8 84bd c1bd 3f3e
000001b0: 926b 8d3d 3745 843c 6352 093c a7fb a53d
000001c0: b2a2 b13d cf0e b43d 2814 00be 8530 25bb
000001d0: 5f47 ac3d ac02 e23c c974 b7bd e660 683c
000001e0: 4176 d23b 9b25 643d dcfa 96bd f071 863d
000001f0: 69d9 043d 8e81 f53d e7d0 26bd cc5d d539
00000200: c60c 0e3e 3a7d c83d 470d bdbc 8d69 e83d
00000210: 51c5 35bb 09e7 c33d 476a 2c3c 8156 e73d
00000220: 9f6d cc3d 2bb0 fe3c 6a17 4cbd fa57 bdbd
00000230: 28b1 823c 6b38 443d 7137 003d 48c0 d8bc
00000240: 1bc7 ac3c 6e40 4a3c 6fa8 bd3c b629 15bd
00000250: 1728 83bd 67a3 adbc 8249 433b 8a07 89bc
00000260: a504 7bbc 889c 37bd 7df7 8e3d cace 3dbd
00000270: b1f6 ecbc 87b8 12bd 4c45 803d a4e4 25bd
00000280: 19b1 7bbd a739 24bd a6d4 e6b9 a315 ecbc
00000290: ce0d 02bd 188b 67bd c898 2e3d 53b4 d33d
000002a0: f5fb aabc ea20 0e3d 4fd5 b6bc 0c42 a83d
000002b0: ebcc 633d 17a1 6abd 45de 3cbd c6fa e93d
000002c0: 4d87 9cbb 091f f93c 0903 f4bd 343f 19bd
000002d0: fb98 aabd a0b0 8cbd 27e3 1a3d 94bf 75bd
000002e0: 7884 023d 50b7 e83c 48cf edbd 08f2 9ebc
000002f0: 06cb d4bd 741d 763c 47e8 f63d 2ba5 803d
00000300: b3c0 9ebb 7d14 dcbd a623 8fbd 53be 46bd
00000310: 46a3 94bd 65b5 c53d f560 afbc 8c8e 943d
00000320: 142c 033e a26f cbbc ec10 bebd 7506 c03d
00000330: 2943 1abd e68d d2bb ab94 9d3d a968 9bbd
00000340: 3cd0 9abd e618 d83b f2a8 5c3d 25d2 23bd
00000350: 7afe 35bb 0fe7 eebc 8ed6 793c e964 803d
00000360: ac3b d7bd bd87 5bbd 9b25 c93c 62ba e3bd
00000370: 468c 003e e55c fabc 404b cebc e961 04bc
00000380: b98a 6cbd 6b4c 9c3d f3b0 debc 1a21 95bd
00000390: a52b d63d d3b3 7fbd d365 483c ec34 583d
000003a0: d64e ac3d cbc9 94bd 9559 89bd ae88 943d
000003b0: 0475 1fbe 0822 82bc d18e 68bd 582f ec3d
000003c0: ac20 113d 2f82 90ba feff 8fbc 3ddc 93bd
000003d0: f304 ecbd bbe1 02bb af74 d13c b924 9ebc
000003e0: 0909 853c 989b bd3d b99d fd3c c5fa 0d3c
000003f0: 47b6 eb3d 2706 fc3c ed7a d5bd 50ca 10bd

encoder.layers.0.self_attn.in_proj_bias f4 [192]
0.023278072 -0.0036923017 0.010707144 0.04656989 -0.054302633 -0.03916101 -0.027937124 -0.019450553
0.008118481 -0.029988626 0.004107085 -0.0022745675 0.067181215 -0.026425853 0.027746486 -0.02722583
0.011965713 -0.021176524 -0.023574548 0.018006844 -0.02621275 -0.041641876 0.014921182 -0.004965556
-0.02553369 0.0017247429 -0.02212522 -0.010781887 -0.00031585858 -0.0034125748 -0.014507853 0.05497811
0.053684022 -0.06723459 -0.0399114 0.04873422 0.015992902 -0.014125916 -0.01063648 -0.055474967
-0.0012526647 0.046163492 -0.064508535 -0.023537854 -0.041877985 0.0525139 -0.01620365 -0.016028196
-0.02110252 -0.0333994 0.06588138 -0.017874494 0.018885517 0.084044166 0.08261043 -0.024553176
0.054103162 0.0231951 0.022921786 0.0864841 0.07232167 0.06950959 -0.0030880072 -0.03641654
-6.1779894e-05 8.710704e-06 -2.4330777e-05 2.754217e-05 5.684078e-05 -5.0997616e-05 8.297703e-06 7.07733e-06
-4.7684392e-05 1.4655802e-05 -2.5133622e-05 6.918699e-06 -1.875315e-05 -2.6790979e-06 -5.950331e-05 2.6070476e-05
0.00010218737 0.00010770362 0.00020321867 -0.00034360873 -0.00013555044 0.000116338226 6.549521e-05 0.00058881514
-3.365778e-06 8.732596e-05 -0.00044125543 -6.8211906e-05 -8.137293e-05 2.8117434e-05 -0.00033386354 5.288406e-05
-6.109273e-05 5.355601e-05 -0.00018050915 -0.0001891535 -0.00025885907 0.00011614952 -0.0002762399 -0.00040715496
-2.2645936e-06 0.00025394105 -0.00026599754 1.1634855e-05 -0.00026704973 0.00021517674 1.3837721e-05 -4.916532e-05
6.5418775e-05 -0.00015498741 -6.554951e-05 9.703286e-05 -0.00017170559 -0.0001684095 0.0002599782 -0.00024280697
-5.874271e-06 2.2819333e-05 6.752282e-05 -0.00010081642 -0.0004339699 0.00010772278 -2.6193042e-05 -5.5707962e-05
0.000670959 -0.030522684 -0.0056818207 -0.040090922 -0.017803432 0.04027299 -0.03685289 -0.06823756
-0.005980748 -0.0068506934 -0.008100426 0.049605973 -0.09635751 -0.04488161 -0.026215278 -0.043505937
-0.061878838 -0.04890465 0.0526817 -0.041397963 0.04340662 -0.06956849 -0.049467705 0.04972335
-0.005211991 -0.010134714 -0.036330573 0.01072961 0.036745645 -0.08055589 -0.07171056 0.02119087
-0.04477305 -0.03432927 0.06624258 0.052635208 -0.04351722 0.037044164 -0.022662861 0.044769503
0.090216115 -0.060783695 0.05460234 0.05776551 -0.030268464 -0.08491942 -0.033167362 -0.013158399
0.058840197 -0.054695603 -0.07473024 0.06848551 0.013026866 0.06926526 -0.060512315 -0.023890795
-0.033030868 0.011624676 -0.05961136 -0.08274718 -0.010351978 0.041452166 -0.034989353 0.05468486
00000000: a8b1 be3c 8bfa 71bb 046d 2f3c 12c0 3e3d
00000010: 706c 5ebd 4c67 20bd 65dc e4bc c456 9fbc
00000020: 6103 053c b5aa f5bc ba94 863b e910 15bb
00000030: 4e96 893d 087b d8bc 994c e33c b408 dfbc
00000040: d70b 443c 647a adbc 691f c1bc 1783 933c
00000050: 1fbc d6bc ac90 2abd f977 743c 1ab6 a2bb
00000060: 072c d1bc c510 e23a f33f b5bc 83a6 30bc
00000070: d299 a5b9 81a5 5fbb 59b2 6dbc ba30 613d
00000080: c7e3 5b3d 4ab2 89bd 237a 23bd 899d 473d
00000090: 8c03 833c 6370 67bc a144 2ebc b839 63bd
000000a0: 7430 a4ba ee15 3d3d 0d1d 84bd 75d2 c0bc
000000b0: 4088 2bbd d118 573d 84bd 84bc 904d 83bc
000000c0: 31df acbc cfcd 08bd d1ec 863d 886d 92bc
000000d0: cdb5 9a3c 591f ac3d a82f a93d be23 c9bc
000000e0: 479b 5d3d a603 be3c 78c6 bb3c 931e b13d
000000f0: 621d 943d 0b5b 8e3d 2a60 4abb 8329 15bd
00000100: d48f 81b8 3024 1237 f219 ccb7 5c0a e737
00000110: 5368 6e38 46e6 55b8 5d36 0b37 cd79 ed36
00000120: ba00 48b8 31e2 7537 0bd6 d2b7 2c27 e836
00000130: 1550 9db7 8dca 33b6 3193 79b8 ecb1 da37
00000140: 6d4d d638 f1de e138 1917 5539 6226 b4b9
00000150: 8b22 0eb9 9cfa f338 795a 8938 b75a 1a3a
00000160: a0df 61b6 c522 b738 4d58 e7b9 fd0c 8fb8
00000170: c2a6 aab8 bbdd eb37 680a afb9 d4cf 5d38
00000180: e91e 80b8 54a1 6038 0e47 3db9 8257 46b9
00000190: 7ab7 87b9 4c95 f338 4bd4 90b9 6a77 d5b9
000001a0: 6cf9 17b6 6423 8539 9675 8bb9 5233 4337
000001b0: cf02 8cb9 11a1 6139 8f28 6837 dc36 4eb8
000001c0: 7031 8938 1e84 22b9 a077 89b8 1f7e cb38
000001d0: de0b 34b9 1597 30b9 af4d 8839 009a 7eb9
000001e0: 9b1b c5b6 256c bf37 0a9b 8d38 676d d3b8
000001f0: 7486 e3b9 3ae9 e138 21b9 dbb7 f8a7 69b8
00000200: 4ce3 2f3a b50a fabc 912e babb 6136 24bd
00000210: 81d8 91bc 4af5 243d 0ef3 16bd 22c0 8bbd
00000220: 27fa c3bb c87b e0bb a6b7 04bc a22f 4b3d
00000230: 1657 c5bd c7d5 37bd 6cc1 d6bc 4833 32bd
00000240: aa74 7dbd 3e50 48bd c4c8 573d e990 29bd
00000250: 24cb 313d ed79 8ebd a69e 4abd b6aa 4b3d
00000260: 59c9 aabb 120c 26bc 5ecf 14bd 3fcb 2f3c
00000270: 9a82 163d 7dfa a4bd fcdc 92bd 7a98 ad3c
00000280: f263 37bd d99c 0cbd 31aa 873d 0498 573d
00000290: 1d3f 32bd 9fbb 173d 77a7 b9bc 3a60 373d
000002a0: 3ac3 b83d 53f8 78bd b4a6 5f3d 879b 6c3d
000002b0: 92f5 f7bc 3cea adbd 80da 07bd 5396 57bc
000002c0: 6b02 713d 7f08 60bd 2b0c 99bd 2242 8c3d
000002d0: a36e 553c f2da 8d3d c3db 77bd a1b6 c3bc
000002e0: 604b 07bd 6d75 3e3c 0b2b 74bd 5a77 a9bd
000002f0: 589b 29bc bfc9 293d ff50 0fbd 3bfd 5f3d

encoder.layers.0.self_attn.out_proj.weight f4 [64, 64]
-0.029821908 0.08167473 -0.020948932 -0.035494708 0.023735361 0.06958842 -0.1185881 -0.003754009
-0.08355221 -0.0034870512 -0.085321754 -0.12969123 -9.167203e-05 0.033380177 0.016222548 -0.060138498
-0.09371119 -0.1420154 0.07049024 -0.00664142 -0.05692172 -0.021220773 -0.10518446 -0.0031356947
-0.04495788 -0.01205726 0.05695787 0.0005138334 -0.0025835156 -0.068378516 -0.054009166 0.09121393
-0.009867701 0.0421859 -0.06996767 -0.02578031 -0.12612836 -0.0218118 -0.13046142 0.012266369
0.11884034 0.064911164 -0.05909007 0.056079056 -0.044961307 0.010943857 0.02694885 -0.019601617
-0.078713305 -0.08571595 -0.113587976 -0.0016099319 0.054195583 0.08114277 0.010294312 -0.06242472
-0.03098937 0.05707233 0.0036270644 -0.017742574 0.06592288 -0.039350305 -0.045392103 -0.05760167
0.06934803 0.12833868 0.01744861 0.00018756445 0.11661381 -0.0030481603 0.11865194 -0.041312348
-0.116781734 0.092263736 0.043700065 -0.05394968 -0.06466304 0.08598932 0.025073834 -0.010902918
-0.019932322 0.039844785 -0.022871448 -0.029074134 -0.0010361783 -0.14414196 -0.06472224 0.1303187
-0.027613485 -0.011571959 0.046422683 -0.028102014 -0.11006657 0.01623573 -0.13135765 0.060101405
-0.17020296 -0.0063138665 -0.08449115 -0.039031193 -0.089594066 -0.026206113 -0.19401687 -0.040850703
-0.0028274627 -0.031710673 -0.121852644 -0.036982756 -0.12278576 0.011407541 0.09065538 0.092711784
-0.07793094 -0.076918595 -0.0023516407 0.02003302 -0.050960824 0.052600022 -0.061196838 0.031792145
0.059157226 0.010248056 0.03483661 -0.05541842 -0.0011643223 0.09254061 -0.074773915 0.0027008338
-0.082460105 -0.0001290972 -0.035611324 0.028711282 0.0922411 -0.037412815 -0.12778525 0.03217217
-0.08044281 -0.045176074 -0.039008074 -0.020701041 0.12901773 0.13177742 -0.046548054 -0.07941232
-0.09820073 -0.0014417048 -0.0345382 -0.06007795 -0.06333412 0.023121264 0.023361208 -0.09482605
-0.05814655 -0.11100042 0.10013472 -0.059632946 0.024208747 -0.0027538827 -0.019968538 -0.1372789
-0.07682566 -0.06950707 0.09673826 0.11366418 0.0023775368 -0.012555611 0.07818653 0.12264635
0.09115185 0.061739888 -0.0658845 -0.08601145 0.09930785 0.086098626 -0.06335905 -0.0057517164
-0.028268013 -0.060990166 0.09482787 -0.06575009 -0.08480239 0.04087959 -0.01781352 0.04400477
0.03373429 0.056720715 -0.00024899576 -0.06651507 -0.03146283 -0.01625281 -0.019268962 -0.09400005
-0.091454804 -0.03148628 0.032221716 -0.0753423 0.01822406 -0.085937604 -0.14314993 -0.01611096
0.018123258 -0.076365285 -0.033195075 0.09856304 0.07532408 0.004400486 -0.01973631 0.030988224
-0.11935586 0.03770138 0.00035496976 -0.11813966 -0.07156443 -0.034904636 -0.03750104 -0.08018739
0.023343032 0.031540528 0.092239566 0.0168304 -0.026155235 -0.11188244 0.06136752 0.0035216617
0.12868097 0.12605539 0.012052777 0.06341439 0.09458808 0.05524932 0.056003403 -0.05780387
0.06264263 -0.0052243327 0.040359538 0.08335493 0.107633986 -0.06403653 0.015495113 -0.12209355
-0.05017949 -0.0106930155 0.08771367 0.038054734 -0.04517037 -0.048403334 -0.059182044 0.08200369
-0.1275855 0.055136103 -0.05522827 0.012217574 0.025346216 0.029054418 0.060511764 0.030840622
00000000: 134d f4bc 1545 a73d 189d abbc e662 11bd
00000010: a970 c23c 6084 8e3d 51de f2bd d205 76bb
00000020: 6c1d abbd 0387 64bb 2cbd aebd c7cd 04be
00000030: 0c40 c0b8 a7b9 083d 26e5 843c c953 76bd
00000040: a7eb bfbd 7c6c 11be 305d 903d 45a0 d9bb
00000050: c026 69bd 30d7 adbc f36a d7bd 3a80 4dbb
00000060: c125 38bd d08b 45bc a84c 693d c7b2 063a
00000070: 3350 29bb 090a 8cbd b738 5dbd 5ece ba3d
00000080: 23ac 21bc 1fcb 2c3d 364b 8fbd 3b31 d3bc
00000090: cb27 01be a9ae b2bc ae97 05be e1f8 483c
000000a0: 9062 f33d 25f0 843d 6e08 72bd 27b3 653d
000000b0: 5929 38bd dd4d 333c d6c3 dc3c 9293 a0bc
000000c0: 7134 a1bd d88b afbd d0a0 e8bd 5a04 d3ba
000000d0: 30fc 5d3d 2e2e a63d 79a9 283c 10b1 7fbd
000000e0: 6bdd fdbc adc4 693d 0bb4 6d3b e058 91bc
000000f0: 9302 873d c92d 21bd 12ed 39bd bbef 6bbd
00000100: 5706 8e3d 376b 033e 63f0 8e3c f3ac 4439
00000110: 39d3 ee3d a5c3 47bb caff f23d 2337 29bd
00000120: 432b efbd c5f4 bc3d d7fe 323d 57fa 5cbd
00000130: 0e6e 84bd 2b1b b03d a467 cd3c 27a2 32bc
00000140: 1c49 a3bc 4934 233d e75c bbbc e12c eebc
00000150: 60d0 87ba f399 13be 188d 84bd 4472 053e
00000160: ad35 e2bc 5098 3dbc b625 3e3d 3236 e6bc
00000170: 956a e1bd cb00 853c 9f82 06be e42c 763d
00000180: af49 2ebe 8de4 cebb b209 adbd 2cdf 1fbd
00000190: 187d b7bd 34ae d6bc 5cac 46be 1153 27bd
000001a0: f44c 39bb 0de3 01bd e18d f9bd 3b7b 17bd
000001b0: 1a77 fbbd b2e6 3a3c 87a9 b93d addf bd3d
000001c0: 429a 9fbd 7f87 9dbd fc1d 1abb 4a1c a43c
000001d0: 4cbc 50bd 1f73 573d 89a9 7abd 7b38 023d
000001e0: d94e 723d 76e7 273c d5b0 0e3d 6dfe 62bd
000001f0: 2c9c 98ba ee85 bd3d 1123 99bd 7900 313b
00000200: d8e0 a8bd 445e 07b9 2edd 11bd ec33 eb3c
00000210: e7e8 bc3d 2e3e 19bd 23da 02be f7c6 033d
00000220: 33bf a4bd 8c0a 39bd eec6 1fbd 3b95 a9bc
00000230: 391d 043e a9f0 063e 2ca9 3ebd eda2 a2bd
00000240: 771d c9bd 96f7 bcba ed77 0dbd 4c14 76bd
00000250: 52b5 81bd ce68 bd3c 0160 bf3c 2934 c2bd
00000260: 142b 6ebd 3054 e3bd 6f13 cd3d ad41 74bd
00000270: 6c51 c63c 7c7a 34bb 0f95 a3bc d792 0cbe
00000280: c656 9dbd b959 8ebd b51e c63d c4c8 e83d
00000290: 73d0 1b3b 0db6 4dbc 4220 a03d 022e fb3d
000002a0: d2ad ba3d f7e2 7c3d 74ee 86bd c526 b0bd
000002b0: ea61 cb3d 7a54 b03d 64c2 81bd e578 bcbb
000002c0: 5292 e7bc d3d0 79bd 1d35 c23d fca7 86bd
000002d0: e0ac adbd 5b71 273d a9ed 91bc 593e 343d
000002e0: f82c 0a3d fb53 683d a58b 82b9 0e39 88bd
000002f0: 2bdf 00bd 9d24 85bc f1d9 9dbc 1983 c0bd
00000300: a84c bbbd c2f7 00bd ebfa 033d 104d 9abd
00000310: a04a 953c 0e00 b0bd e595 12be 22fb 83bc
00000320: 3a77 943c 6765 9cbd 8ff7 07bd 6bdb c93d
00000330: 8343 9a3d f431 903b 0bae a1bc 04db fd3c
00000340: d870 f4bd c36c 1a3d 3c1b ba39 35f3 f1bd
00000350: 5f90 92bd 2af8 0ebd b19a 19bd 4939 a4bd
00000360: e339 bf3c a430 013d 19e8 bc3d e8df 893c
00000370: 8143 d6bc 9f22 e5bd 825c 7b3d aecb 663b
00000380: f2c4 033e aa14 013e 0379 453c 67df 813d
00000390: 65b7 c13d 1c4d 623d d363 653d c0c3 6cbd
000003a0: c74a 803d e130 abbb 0b50 253d fdb5 aa3d
000003b0: 356f dc3d 9625 83bd 37df 7d3c 2f0c fabd
000003c0: 0289 4dbd c231 2fbc 3aa3 b33d 48df 1b3d
000003d0: 9104 39bd 9342 46bd df68 72bd 8df1 a73d
000003e0: c6a5 02be 65d6 613d 0a37 62bd 382c 483c
000003f0: dea2 cf3c 8803 ee3c 2fdb 773d 79a5 fc3c

encoder.layers.0.self_attn.out_proj.bias f4 [64]
0.016199246 0.03908817 0.050445523 0.06895317 -0.03420577 0.000771071 0.0373998 0.024084384
-0.03578349 -0.043347005 -0.026660953 -0.037027553 -0.060003508 0.006281842 -0.031692464 0.052778747
0.027891308 -0.054257665 -0.06933479 -0.026698694 0.014109342 0.04268587 0.034627263 -0.03771119
0.035841726 0.029003562 0.02537128 -0.035983052 0.028924359 0.036883354 -0.039816916 0.022274837
-0.011544513 -0.052648075 -0.010208333 -0.035644468 -0.018189069 0.024670845 0.05197034 -0.033209246
-0.028245136 0.008462637 0.0065498254 0.024300123 -0.008722773 -0.043929715 -0.042170525 0.021548163
0.073184036 0.0274138 -0.034223247 0.0061942646 0.032238033 -0.025749356 0.021986736 0.03258963
-0.029023565 0.014337104 0.0120029645 0.0024081748 0.0025609422 0.012950906 0.018950371 -0.011924425
00000000: 48b4 843c eb1a 203d f79f 4e3d 5237 8d3d
00000010: 591b 0cbd b321 4a3a 8830 193d 9d4c c53c
00000020: b591 12bd a18c 31bd 1268 dabc 34aa 17bd
00000030: 3dc6 75bd e9d7 cd3b f5cf 01bd 872e 583d
00000040: 507c e43c 493d 5ebd 66ff 8dbd 38b7 dabc
00000050: df2a 673c 61d7 2e3d 51d5 0d3d 0c77 1abd
00000060: c6ce 123d e198 ed3c 6ed7 cf3c f762 13bd
00000070: c7f2 ec3c 0013 173d 1017 23bd b879 b63c
00000080: 3225 3dbc 82a5 57bd da40 27bc efff 11bd
00000090: 3e01 95bc 831a ca3c dade 543d 6b06 08bd
000000a0: 5862 e7bc dfa6 0a3c eb9f d63b 0d11 c73c
000000b0: f6e9 0ebc a5ef 33bd 00bb 2cbd c685 b03c
000000c0: 83e1 953d e892 e03c ad2d 0cbd 42f9 ca3b
000000d0: 070c 043d 50f0 d2bc 871d b43c b47c 053d
000000e0: d4c2 edbc 2ce6 6a3c 15a8 443c 78d2 1d3b
000000f0: 7bd5 273b 0930 543c cf3d 9b3c aa5e 43bc

encoder.layers.0.linear1.weight f4 [128, 64]
-0.018326756 -0.002932239 -0.08521436 0.11411955 -0.081906475 0.0011879662 -0.042762876 0.04316962
0.09577481 0.14980592 -0.014780088 -0.08770275 -0.17554733 0.017214458 0.09514002 -0.04274306
-0.007175313 -0.009693385 0.112961695 0.07352708 -0.112259194 -0.08114185 -0.07190576 -0.052730896
-0.042455543 0.051687066 0.026348466 0.06165226 0.10470073 0.04045345 0.019523418 -0.008264586
0.12214915 -0.10505498 0.070427775 0.032420788 0.03603411 0.107345775 -0.06316045 -0.047758836
-0.023151118 0.021584913 -0.08524532 0.07046547 0.17113423 -0.05318762 -0.058961894 0.028765133
0.1658167 0.0047143972 -0.027964342 -0.033181034 -0.004660726 -0.05960426 -0.11306461 0.013201822
0.050945666 0.045503713 -0.011748573 -0.05506333 -0.11906129 -0.08664877 0.04720118 -0.08592205
0.0063888165 -0.0063693766 0.0034473508 0.033763245 -0.00019364415 -0.0045164563 0.008495288 -0.013082808
0.00598633 0.018234456 0.013204431 -0.015461161 -0.008519401 0.0019517303 0.0054353126 -0.0043237344
0.005818653 -0.003556972 0.0033153605 -0.0058650565 -0.008995359 -0.018959524 0.006100002 -0.008137875
0.0034105373 -0.018686991 0.0076562106 0.018275633 0.0051914705 0.01162446 0.04367783 0.018527808
0.00089019514 -0.0280276 0.032651883 -0.007843112 0.0042309877 -0.0068854555 -0.003347088 -0.0068858494
0.02639656 0.0036582178 -0.0066493833 -0.01884481 0.01246836 0.00808208 -0.0024189479 -0.019436348
0.00889473 -0.0012023295 2.3584468e-07 0.0014609717 0.015208238 -0.04680942 0.018391212 -0.00239992
0.008071866 0.011123586 0.014658374 -0.02311387 -0.009118408 -0.0036525466 0.0058009475 0.0037424937
-0.02728947 0.016079871 0.071395285 0.117933065 -0.085441954 -0.060746185 -0.027197076 0.089370266
-0.10098597 -0.039851952 0.090304025 -0.01913628 -0.09484324 -0.021954909 -0.054102756 0.026020026
-0.031232052 0.027523378 -0.13103053 0.016665176 0.12893511 -0.021534258 -0.09178685 -0.021434592
0.049671523 0.054295946 0.09376472 -0.14403674 0.024254901 0.015129181 -0.122017324 -0.065569535
-0.09420884 0.012847292 -0.10847724 -0.13229318 -0.13400483 0.013405202 0.14661598 -0.013957728
0.031799924 -0.01694618 -0.13569716 0.031540234 -0.07897821 -0.051896702 -0.11945819 0.09516004
-0.08169852 -0.076028615 -0.12484611 -0.01769504 -0.060416516 0.09415557 -0.07969965 0.02161426
0.055506013 -0.09617362 -0.11000738 -0.017912578 0.015107383 -0.15316895 0.05412674 0.033401586
0.054468006 0.011750997 -0.050423857 0.066941455 -0.037586436 -0.025090586 -0.021559525 -0.024541408
0.015863806 0.06960159 -0.016879812 -0.0057210457 -0.060014326 -0.022608195 -0.01587965 -0.042186238
-0.043179136 0.059170213 0.061507598 0.06083877 -0.039491206 -0.035076935 0.01014358 -0.009930573
-0.0055769477 0.012669733 0.023900205 -0.0070852963 0.053467352 0.00059656467 0.05509359 -0.01549426
0.04434896 -0.016190844 0.020214995 0.04511554 0.060955994 -0.035566688 -0.01395315 0.042867925
-0.04016582 0.04598532 -0.06004653 0.048260625 0.066174686 -0.03626345 0.039941896 -0.016934061
0.08046224 -0.05220268 0.0688768 0.003990376 -0.052553173 0.04467937 -0.08054677 -0.04432374
0.02061637 -0.011861412 -0.035485532 -0.0902846 -0.03678354 -0.022355711 -0.011703443 -0.056979943
00000000: fe21 96bc cf2a 40bb de84 aebd 83b7 e93d
00000010: 95be a7bd 88b5 9b3a 2028 2fbd a1d2 303d
00000020: 9525 c43d b966 193e 2f28 72bc 809d b3bd
00000030: aec2 33be 5605 8d3c c5d8 c23d 5913 2fbd
00000040: e31e ebbb 01d1 1ebc 7658 e73d 5e95 963d
00000050: 26e8 e5bd b32d a6bd 5443 93bd 5afc 57bd
00000060: dde5 2dbd d1b5 533d bdd8 d73c 1587 7c3d
00000070: 566d d63d 84b2 253d 93ef 9f3c 3068 07bc
00000080: 5529 fa3d 1127 d7bd 703c 903d a9cb 043d
00000090: 8198 133d 1ad8 db3d 445a 81bd c59e 43bd
000000a0: 6aa7 bdbc d8d2 b03c 1995 aebd 3350 903d
000000b0: d03d 2f3e 43db 59bd 0782 71bd dba4 eb3c
000000c0: dacb 293e 3b7b 9a3b 7a15 e5bc d6e8 07bd
000000d0: 01b9 98bb 9923 74bd 6b8e e7bd 744c 583c
000000e0: 67ac 503d 1a62 3a3d 167d 40bc 168a 61bd
000000f0: 68d6 f3bd e974 b1bd 0656 413d e6f7 afbd
00000100: 4759 d13b 34b6 d0bb f3ec 613b 544b 0a3d
00000110: f50c 4bb9 c8fe 93bb d22f 0b3c 4659 56bc
00000120: fa28 c43b 6d60 953c 6657 583c cf50 7dbc
00000130: f594 0bbc 34d1 ff3a b51a b23b 1dae 8dbb
00000140: 66aa be3b 161c 69bb 8546 593b a92f c0bb
00000150: 4561 13bc 0151 9bbc 87e2 c73b b954 05bc
00000160: 5283 5f3b 7615 99bc f3e0 fa3b c8b6 953c
00000170: 361d aa3b 8574 3e3c 86e7 323d a1c7 973c
00000180: fc5b 693a 239a e5bc fbbd 053d 6580 00bc
00000190: 19a4 8a3b 639f e1bb d15a 5bbb b1a2 e1bb
000001a0: 993d d83c b6be 6f3b 12e3 d9bb 6e60 9abc
000001b0: 1848 4c3c b36a 043c 3687 1ebb fa38 9fbc
000001c0: 34bb 113c 7c97 9dba 7e3c 7d34 137e bf3a
000001d0: f92b 793c 3cbb 3fbd 2ba9 963c fa47 1dbb
000001e0: dc3f 043c b43f 363c ad29 703c 4c59 bdbc
000001f0: 6065 15bc 905f 6fbb e015 be3b a044 753b
00000200: 2b8e dfbc efb9 833c b137 923d e486 f13d
00000210: 31fc aebd fed0 78bd 67cc debc c207 b73d
00000220: bbd1 cebd cd3b 23bd 51f1 b83d b0c3 9cbc
00000230: 2c3d c2bd c8da b3bc da9a 5dbd f327 d53c
00000240: 5cda ffbc b578 e13c de2c 06be 6885 883c
00000250: 9107 043e 9d68 b0bc befa bbbd 9997 afbc
00000260: 5e74 4b3d 6d65 5e3d b807 c03d 5e7e 13be
00000270: 37b2 c63c 62e0 773c 38e4 f9bd 5249 86bd
00000280: 90f0 c0bd 737d 523c 5129 debd dd77 07be
00000290: 9038 09be 7ea1 5b3c 8022 163e f4ae 64bc
000002a0: a340 023d b7d2 8abc 32f4 0abe 5530 013d
000002b0: 54bf a1bd a391 54bd 7fa6 f4bd 44e3 c23d
000002c0: 8e51 a7bd e4b4 9bbd 51af ffbd 30f5 90bc
000002d0: 4f77 77bd a3d4 c03d 9239 a3bd 6310 b13c
000002e0: 465a 633d adf6 c4bd 8d4b e1bd 66bd 92bc
000002f0: f584 773c 52d8 1cbe 00b4 5d3d 1ad0 083d
00000300: d819 5f3d 4187 403c 3f89 4ebd 9a18 893d
00000310: 3cf4 19bd c68a cdbc 9a9d b0bc 100b c9bc
00000320: d0f4 813c 478b 8e3d 8847 8abc 9c77 bbbb
00000330: 95d1 75bd d234 b9bc 0a16 82bc 7acb 2cbd
00000340: 9bdc 30bd 775c 723d 64ef 7b3d 1332 793d
00000350: 88c1 21bd d5ac 0fbd 4231 263c d8b3 22bc
00000360: d4be b6bb b694 4f3c 5dca c33c c62b e8bb
00000370: 9500 5b3d c762 1c3a d1a9 613d a3db 7dbc
00000380: 41a7 353d a9a2 84bc eb99 a53c 13cb 383d
00000390: feac 793d 60ae 11bd c19b 64bc 4796 2f3d
000003a0: ea84 24bd 1a5b 3c3d 5af3 75bd efac 453d
000003b0: 9886 873d fc88 14bd 1d9a 233d 4db9 8abc
000003c0: 63c9 a43d 7ad2 55bd 480f 8d3d b3c1 823b
000003d0: ff41 57bd b701 373d b4f5 a4bd cf8c 35bd
000003e0: a9e3 a83c 5e56 42bc 4759 11bd 22e7 b8bd
000003f0: 56aa 16bd 5323 b7bc ccbf 3fbc cd63 69bd

encoder.layers.0.linear1.bias f4 [128]
-0.1402063 -0.02567429 -0.07448209 -0.09630664 -0.05626943 -0.04587565 -0.09567197 0.02607328
0.023155054 0.008228651 -0.15511249 0.0677388 -0.06303968 -0.06657614 -0.0794202 -0.11200146
-0.07366758 -0.02708015 -0.0134619 -0.06422732 0.012141888 -0.056674145 -0.06734026 -0.003918552
-0.12478077 -0.0049169934 0.016455974 -0.043997295 0.105831236 -0.08256296 0.033999685 0.0037936284
-0.08518562 0.058592554 -0.067802325 0.043149043 -0.014735782 -0.04218391 -0.002389477 0.026775992
-0.051517192 -0.055759497 -0.07699396 -0.14857017 -0.031949334 0.023374155 -0.022529645 0.023315305
-0.109521426 -0.1256608 0.035522263 0.033354104 -0.09386065 -0.045006137 -0.0010167415 0.050773706
-0.111774154 -0.002107499 0.015055696 0.04544467 0.05241388 -0.09222228 -0.084354244 -0.08628436
-0.08457836 0.06659016 -0.063264474 -0.14747787 -0.012212763 -0.045263946 -0.004037435 0.0008062843
-0.046375982 -0.102848016 -0.016554367 -0.088716544 -0.04048951 -0.08344479 -0.031985905 -0.023632837
-0.07744436 0.00819753 -0.026778791 0.08473667 -0.024680404 -0.10255064 -0.04089474 0.016159162
-0.106166996 -0.0936342 0.018498238 -0.011462157 -0.055709668 -0.015736938 -0.011888339 -0.018935446
-0.09466058 -0.09632716 -0.058421455 -0.026525127 -0.10254441 -0.016437849 -0.09371141 -0.040783152
-0.08348402 0.018369213 -0.07702796 0.029734194 -0.044816338 0.07546621 -0.14829881 -0.07587536
-0.006727356 -0.082076974 -0.04051217 0.04808531 -0.08170174 -0.107367784 0.01220698 0.01797974
-0.12675668 -0.07833354 -0.03920152 -0.073274165 -0.06885169 -0.02967521 -0.06403218 -0.038755868
00000000: 3e92 0fbe e352 d2bc 118a 98bd 6a3c c5bd
00000010: c67a 66bd 1be8 3bbd aaef c3bd a297 d53c
00000020: abaf bd3c 77d1 063c cfd5 1ebe a4ba 8a3d
00000030: f31a 81bd 1259 88bd 0fa7 a2bd 0561 e5bd
00000040: 07df 96bd 31d7 ddbc 4d8f 5cbc 9d89 83bd
00000050: c5ee 463c 2623 68bd b1e9 89bd 3267 80bb
00000060: 0f8d ffbd bb1e a1bb aece 863c 8236 34bd
00000070: 0cbe d83d c516 a9bd 4143 0b3d 869e 783b
00000080: cc75 aebd bffe 6f3d f2db 8abd 0dbd 303d
00000090: 596e 71bc 09c9 2cbd c698 1cbb 5359 db3c
000000a0: b103 53bd 1264 64bd 02af 9dbd c722 18be
000000b0: 4edd 02bd 287b bf3c 1790 b8bc bdff be3c
000000c0: c54c e0bd 3aad 00be cb7f 113d 509e 083d
000000d0: 033a c0bd 5b58 38bd 2f44 85ba 17f8 4f3d
000000e0: d9e9 e4bd f71d 0abb 2aac 763c 3124 3a3d
000000f0: f0af 563d 09df bcbd ebc1 acbd dbb5 b0bd
00000100: 6b37 adbd 6c60 883d ce90 81bd 7004 17be
00000110: 0a18 48bc b066 39bd 764c 84bb d35c 533a
00000120: bef4 3dbd fba1 d2bd 069d 87bc 05b1 b5bd
00000130: 54d8 25bd 1ae5 aabd a703 03bd a799 c1bc
00000140: 269b 9ebd ef4e 063c 325f dbbc 6b8a ad3d
00000150: 8f2e cabc 1206 d2bd 3e81 27bd 3860 843c
00000160: 156e d9bd 4ac3 bfbd 9e89 973c c5cb 3bbc
00000170: d22f 64bd c0ea 80bc 4fc7 42bc 821e 9bbc
00000180: 68dd c1bd 2d47 c5bd 564b 6fbd 394b d9bc
00000190: ce02 d2bd aba8 86bc c5eb bfbd 3c0c 27bd
000001a0: abf9 aabd 087b 963c d6c0 9dbd 2095 f33c
000001b0: 5691 37bd 078e 9a3d a5db 17be 8a64 9bbd
000001c0: 2771 dcbb f917 a8bd 17f0 25bd 1af5 443d
000001d0: 3e53 a7bd a4e3 dbbd c9ff 473c 3f4a 933c
000001e0: 81cc 01be 566d a0bd c691 20bd c410 96bd
000001f0: 1d02 8dbd 6d19 f3bc 4e23 83bd 79be 1ebd

encoder.layers.0.linear2.weight f4 [64, 128]
-0.019373221 -0.0035747108 -0.041835006 -0.03370237 -0.062072687 -0.021907695 -0.02752984 -0.017165063
0.05913673 0.0080384435 -0.11062068 0.019657487 -0.047094803 0.01773594 0.015429166 -0.04463089
0.022729356 0.04579497 -0.011180836 0.021570012 0.056908667 -0.02296876 -0.06910694 -0.059450824
-0.010489427 -0.023401983 -0.06664177 -0.024768481 -0.012097371 0.06779562 -0.04130565 -0.06421266
0.024735771 0.037530493 -0.051435456 0.030720983 0.06612507 -0.026201162 0.006300786 -0.021171078
0.060891904 -0.056960072 -0.0059143207 -0.035057593 0.04291196 0.059476517 0.024807874 -0.0021724217
-0.021214014 0.01820292 0.001786802 0.017850343 0.021909889 0.04107919 -0.0138975745 -0.021098187
-0.021439759 0.04461944 0.064911105 -0.07965032 0.00799374 0.0959262 -0.0354114 -0.038081266
-0.0027163823 0.040913887 -0.046529256 -0.058655977 0.0066385376 0.03779017 0.032080866 -0.09451302
0.020624427 -0.04660175 0.087194905 -0.0064309197 -0.013464907 -0.0045960997 -0.086154014 0.05179097
-0.020320173 -0.017344706 -0.020685814 0.0941226 -0.04198819 0.043174066 0.0036995264 0.07639001
-0.059021696 0.030192519 0.031695858 -0.028684612 -0.009814414 -0.036173873 0.017166525 -0.035533916
-0.010939511 -0.0022263457 -0.02808607 0.0048413007 -0.061937988 -0.009206315 -0.033626847 -0.033257056
-0.05536107 -0.044407792 -0.06324697 0.048151642 -0.03754768 -0.0029265706 -0.020415949 -0.004387391
-0.12811227 0.040453877 -0.014529377 0.059880845 0.076359004 -0.09604052 0.05638477 0.026747903
-0.03817487 -0.008954178 -0.069041155 0.008652943 0.06510114 -0.022787109 -0.0022627253 0.014629883
0.025083486 -0.00898607 0.03713809 -0.048334766 0.006528521 0.027644284 -0.0099484 0.003454152
-0.037717532 0.008003718 -0.0573512 -0.0021174036 0.05770311 -0.026758995 0.0056518586 -0.017370204
0.027501194 0.03756996 -0.05530294 0.019913988 0.0071871867 -0.0032298265 -0.017490515 0.029346861
-0.092466764 -0.007060339 -0.047510345 0.014492749 0.1529425 -0.007427636 -0.033652972 0.020988058
-0.01106247 -0.06833637 0.08895189 0.024364503 0.008551214 0.04985523 -0.015566273 -0.030722152
0.034361757 -0.005827239 -0.0041304897 -0.0001361351 0.019318271 0.042165134 0.029072395 -0.03565926
-0.0008650079 -0.0026904745 -0.06891691 -0.05156208 -0.09822034 -0.007502839 0.017339744 0.06702655
0.030415187 -0.032593947 -0.022738706 0.0067368625 -0.042789623 -0.048629757 0.017950065 -0.0049455687
-0.009317549 -0.022763705 0.016504155 -0.056951582 0.012085681 -0.05716063 -0.033566408 -0.03501759
0.040484883 0.07874697 0.0705428 0.022626868 0.004461698 -0.030108778 -0.034039345 0.033633146
0.033467382 -0.057989314 0.00708492 0.022720778 0.024293218 -0.060161065 0.016623938 -0.04368833
-0.057404216 0.055953685 -0.0018228785 0.092081286 -0.03697554 -0.04628938 0.0569479 0.051359136
-0.0398859 0.024972899 -0.0073883687 0.11119329 -0.026524093 0.027289385 -0.010990229 0.011933717
-0.09069077 -0.023339706 0.070593715 -0.016424013 0.008601768 -0.035008922 0.05875864 0.017749384
-0.03995872 0.04411674 0.018351408 0.015999787 0.060495354 -0.08316602 -0.041002322 -0.014186506
0.046914477 0.0079771485 0.0321591 -0.071546175 -0.042417318 0.06550865 -0.012276399 -0.11418778
00000000: 97b4 9ebc b245 6abb 2f5b 2bbd 7f0b 0abd
00000010: ee3f 7ebd c477 b3bc 4286 e1bc bf9d 8cbc
00000020: 5b39 723d adb3 033c 188d e2bd bd08 a13c
00000030: 7be6 40bd f64a 913c 9dca 7c3c e1ce 36bd
00000040: ea32 ba3c 8293 3b3d d32f 37bc 98b3 b03c
00000050: 1019 693d fb28 bcbc f087 8dbd b582 73bd
00000060: d8db 2bbc 84b5 bfbc 7b7b 88bd 45e7 cabc
00000070: 0d34 46bc 6ed8 8a3d 1d30 29bd ed81 83bd
00000080: aca2 ca3c 93b9 193d fcad 52bd 92aa fb3c
00000090: 956c 873d d2a3 d6bc d376 ce3b f86e adbc
000000a0: ca69 793d f74e 69bd ebcc c1bb 8d98 0fbd
000000b0: 74c4 2f3d a69d 733d e239 cb3c 305f 0ebb
000000c0: 03c9 adbc 4a1e 953c 2033 ea3a e23a 923c
000000d0: 5e7c b33c a742 283d a7b2 63bc 1bd6 acbc
000000e0: 6fa2 afbc e0c2 363d 1df0 843d b51f a3bd
000000f0: 2df8 023c f574 c43d 8b0b 11bd 1afb 1bbd
00000100: 5505 32bb 5295 273d 7695 3ebd 4041 70bd
00000110: 1788 d93b dec9 1a3d 3a67 033d 0b90 c1bd
00000120: 8ff4 a83c 7ae1 3ebd 3e93 b23d 77ba d2bb
00000130: ea9b 5cbc e19a 96bb 8471 b0bd c522 543d
00000140: 7e76 a6bc 7c16 8ebc 4c75 a9bc 5ac3 c03d
00000150: cffb 2bbd 4ad7 303d c173 723b 5e72 9c3d
00000160: bcc0 71bd 4d56 f73c 84d3 013d fefb eabc
00000170: a3cc 20bc 0e2b 14bd d0a0 8c3c 038c 11bd
00000180: a23b 33bc e2e7 11bb c214 e6bc c6a3 9e3b
00000190: b0b2 7dbd 15d6 16bc 4ebc 09bd 8d38 08bd
000001a0: 4ac2 62bd f2e4 35bd a187 81bd a83a 453d
000001b0: 99cb 19bd b5cb 3fbb 593f a7bc 1ac4 8fbb
000001c0: dd2f 03be f7b2 253d a00c 6ebc 9e45 753d
000001d0: 1c62 9c3d e4b0 c4bd b7f3 663d 6b1e db3c
000001e0: 415d 1cbd 8bb4 12bc 7365 8dbd 13c5 0d3c
000001f0: bf53 853d 08ac babc 3b4a 14bb 2db2 6f3c
00000200: e27b cd3c 4f3a 13bc 1c1e 183d adfa 45bd
00000210: 34ed d53b 4476 e23c 9dfe 22bc 0e5f 623b
00000220: b37d 1abd 0722 033c 18e9 6abd 23c4 0abb
00000230: 195a 6c3d ae35 dbbc 3a33 b93b f54b 8ebc
00000240: 2f4a e13c f5e2 193d 5685 62bd a922 a33c
00000250: 7e82 eb3b 7fab 53bb 4548 8fbc d468 f03c
00000260: 375f bdbd 6b5a e7bb 359a 42bd ff72 6d3c
00000270: f59c 1c3e 8763 f3bb b3d7 09bd 26ef ab3c
00000280: 5d3f 35bc f0f3 8bbd 692c b63d 1198 c73c
00000290: 641a 0c3c ff34 4c3d ae09 7fbc 06ad fbbc
000002a0: eabe 0c3d 6cf2 bebb 0f59 87bb 7dbf 0eb9
000002b0: 5a41 9e3c 59b5 2c3d 3b29 ee3c 720f 12bd
000002c0: b3c1 62ba ac52 30bb 4f24 8dbd c232 53bd
000002d0: bf27 c9bd 60da f5bb 140c 8e3c 3745 893d
000002e0: 4529 f93c 3b81 05bd 8646 babc e6c0 dc3b
000002f0: 2c44 2fbd ff2f 47bd 040c 933c 700e a2bb
00000300: a2a8 18bc f37a babc b933 873c 1046 69bd
00000310: 0503 463c 4421 6abd ee7c 09bd 9b6e 0fbd
00000320: 7ad3 253d 1746 a13d be78 903d fb5b b93c
00000330: 6f33 923b afa6 f6bc d76c 0bbd e9c2 093d
00000340: 1815 093d 3486 6dbd 9e28 e83b ed20 ba3c
00000350: 9202 c73c 736b 76bd ed2e 883c 89f2 32bd
00000360: af20 6bbd b12f 653d a7ed eeba 1d95 bc3d
00000370: aa73 17bd ef99 3dbd 3442 693d f55d 523d
00000380: 665f 23bd f793 cc3c 211a f2bb 4fb9 e33d
00000390: 0e49 d9bc fd8d df3c 5d10 34bc a385 433c
000003a0: 15bc b9bd e932 bfbc 7093 903d a78b 86bc
000003b0: 6eee 0c3c 8465 0fbd e6ac 703d 2867 913c
000003c0: c1ab 23bd c1b3 343d b155 963c fc11 833c
000003d0: fac9 773d f252 aabd 0df2 27bd 856e 68bc
000003e0: 6529 403d 96b2 023c 43b9 033d cd86 92bd
000003f0: c8bd 2dbd 6629 863d f322 49bc 48db e9bd

encoder.layers.0.linear2.bias f4 [64]
-0.07876232 -0.05579208 0.025934346 -0.044712055 -0.099253535 0.018026622 0.005860722 -0.034953002
-0.06123961 -0.040690385 -0.06273717 -0.059049547 -0.008607866 0.059256017 -0.011472611 -0.02622347
-0.0027521672 0.06913616 -0.005306696 0.041541692 0.04890613 0.020563072 -0.07521255 0.016925756
0.016376952 -0.025626447 0.025703272 -0.037196144 0.037904102 -0.051607616 0.05174484 0.015215003
0.02219214 -0.0053412463 0.024483832 -0.07709107 0.033979386 -0.06812425 -0.08954592 0.030981245
-0.020049158 0.03728563 0.027947484 0.055037457 -0.0056317933 0.029987574 0.037989 0.0600986
0.021164844 -0.0692044 0.055728536 0.051937133 0.055937316 -0.08201344 -0.07650783 -0.05260556
-0.045740094 0.01637229 -0.00748718 -0.041953553 -0.05766868 -0.035050116 0.04350324 0.012509422
00000000: 244e a1bd 3c86 64bd 4474 d43c fd23 37bd
00000010: 7045 cbbd 91ac 933c 4d0b c03b e12a 0fbd
00000020: 63d6 7abd f6aa 26bd 587c 80bd f0dd 71bd
00000030: 0208 0dbc 70b6 723d 9ef7 3bbc 9ad2 d6bc
00000040: b45d 34bb 4297 8d3d cbe3 adbb 9f27 2a3d
00000050: cb51 483d e373 a83c 0a09 9abd e2a7 8a3c
00000060: f528 863c 8eee d1bc ab8f d23c fc5a 18bd
00000070: 5541 1b3d 8262 53bd 66f2 533d 5948 793c
00000080: 4acc b53c 9f05 afbb 5192 c83c ece1 9dbd
00000090: f82d 0b3d ba84 8bbd da63 b7bd 61cc fd3c
000000a0: 223e a4bc d1b8 183d 1ff2 e43c f56e 613d
000000b0: e88a b8bb 80a8 f53c 5b9a 1b3d f329 763d
000000c0: e561 ad3c 09bb 8dbd 9b43 643d 08bc 543d
000000d0: 871e 653d aaf6 a7bd 23b0 9cbd ed78 57bd
000000e0: f759 3bbd 2e1f 863c 0557 f5bb 7dd7 2bbd
000000f0: fe35 6cbd b690 0fbd 7430 323d 52f4 4c3c

encoder.layers.0.norm1.weight f4 [64]
0.90591085 0.8979511 0.8852303 0.9630303 0.82102966 0.7158236 0.87366897 0.83104336
0.8990166 0.9439249 0.91656435 0.95724267 0.8630222 0.8076996 0.894959 0.8966028
0.84195584 0.89644873 0.898066 1.0204855 0.9117941 0.8776703 0.9545625 0.8433747
0.9995559 0.90431297 0.91037136 0.9010469 0.88756186 0.8883192 0.952351 0.805223
0.9724702 0.9792779 0.9317492 0.8743182 0.97216535 0.93805283 0.9707696 0.9869296
0.9149 0.8959842 0.95905024 0.88509846 0.9617488 0.935431 0.93022895 0.91934675
0.94099045 0.9532494 0.8549847 0.7706122 0.91011643 0.94551957 0.8935838 0.8782108
0.8645958 0.6899604 0.8185521 0.9562098 0.8873895 0.86545587 0.9217019 0.9500405
00000000: c6e9 673f 20e0 653f 749e 623f 2789 763f
00000010: 002f 523f 3740 373f c5a8 5f3f 42bf 543f
00000020: f425 663f 10a5 713f f6a3 6a3f db0d 753f
00000030: 06ef 5c3f 67c5 4e3f 081c 653f c387 653f
00000040: 6b8a 573f aa7d 653f a7e7 653f 459f 823f
00000050: 576b 693f 00af 603f 355e 743f 68e7 573f
00000060: e5e2 7f3f 0e81 673f 190e 693f 02ab 663f
00000070: 4137 633f e368 633f 46cd 733f 1823 4e3f
00000080: cff3 783f f5b1 7a3f 1e87 6e3f 51d3 5f3f
00000090: d4df 783f 3b24 703f 5b84 783f 6ba7 7c3f
000000a0: e336 6a3f 385f 653f 5184 753f d095 623f
000000b0: 2b35 763f 6878 6f3f 7c23 6e3f 4f5a 6b3f
000000c0: c0e4 703f 2708 743f 47e0 5a3f d746 453f
000000d0: 64fd 683f 920d 723f e8c1 643f 6cd2 603f
000000e0: 2656 5d3f 3fa1 303f a18c 513f 2aca 743f
000000f0: f52b 633f 848e 5d3f a8f4 6b3f db35 733f

encoder.layers.0.norm1.bias f4 [64]
-0.021399016 -0.013532304 0.020009922 0.041552845 -0.03338334 -0.030043827 0.024893375 -0.0010426964
0.019775068 0.006703417 -0.017425703 0.011484101 -0.013608986 0.0077984193 0.016425781 -0.0017650955
-0.035314474 -0.015422778 0.007525789 0.0068483353 -0.000773106 0.0075588827 -0.0012211009 -0.013397956
0.00022327881 -0.027723162 -0.0067158374 0.033810522 0.0083585 0.026441833 0.019068627 0.0131405685
0.0021781342 0.010887483 0.038992118 0.013496492 -0.01811294 -0.03624083 -0.009551137 -0.0057626152
-0.0140023045 -0.005730644 -0.030338394 0.024813598 0.028092043 0.0031478768 0.006384151 0.026257625
0.011195517 -0.019213121 0.0022696415 -0.023739751 0.0053169783 -0.017105704 -0.0037744604 0.05037231
-0.020602591 -0.0031684486 -0.009219482 -0.029513435 -0.025390415 0.02597503 -0.019390564 -0.035023354
00000000: fd4c afbc 99b6 5dbc d9eb a33c 5133 2a3d
00000010: f8bc 08bd 791e f6bc 31ed cb3c 16ab 88ba
00000020: 53ff a13c 56a8 db3b 59c0 8ebc d027 3c3c
00000030: 39f8 5ebc e289 ff3b 5c8f 863c c75a e7ba
00000040: e9a5 10bd d2af 7cbc e59a f63b 0068 e03b
00000050: 44aa 4aba 81b0 f73b 590d a0ba 1a83 5bbc
00000060: f31f 6a39 af1b e3bc 8710 dcbb e77c 0a3d
00000070: 17f2 083c 8b9c d83c cf35 9c3c 8a4b 573c
00000080: 07bf 0e3b 6a61 323c 33b6 1f3d 6420 5d3c
00000090: 9761 94bc 4471 14bd 5f7c 1cbc 52d4 bcbb
000000a0: ec69 65bc 20c8 bbbb 3988 f8bc e345 cb3c
000000b0: 4921 e63c 9c4c 4e3b 2432 d13b 3b1a d73c
000000c0: 676d 373c d664 9dbc 44be 143b de79 c2bc
000000d0: 0c3a ae3b 4321 8cbc f05c 77bb 3253 4e3d
000000e0: c4c6 a8bc bfa5 4fbb 4f0d 17bc 29c6 f1bc
000000f0: 8fff cfbc 96c9 d43c f6d8 9ebc a674 0fbd

encoder.layers.0.norm2.weight f4 [64]
0.8859963 0.91039246 0.79861313 0.9359547 0.83495796 0.6874489 0.86954194 0.8751998
0.9187923 0.95002383 0.90528506 0.98406243 0.7441508 0.7811378 0.9087527 0.8840123
0.77210695 0.92386955 0.9498249 1.0088834 0.95608425 0.7630548 0.98097855 0.82024086
1.0146468 0.89457095 0.8061211 0.88688505 0.8502331 0.8708147 0.95603544 0.80732226
0.9822149 0.9936077 0.8748924 0.8220981 1.0015365 0.94711024 0.9595051 0.9322067
0.9072853 0.81325346 0.9907769 0.8451016 0.9806475 0.930443 0.874624 0.8760549
0.918733 0.98362297 0.9188921 0.79319334 0.94840777 0.9526124 0.8633018 0.9015654
0.88846207 0.7085798 0.75657 0.9125236 0.7548589 0.91266334 0.9088532 0.8175581
00000000: a7d0 623f 7b0f 693f e971 4c3f ba9a 6f3f
00000010: cebf 553f a7fc 2f3f 4d9a 5e3f 180d 603f
00000020: f935 6b3f c334 733f c3c0 673f 84eb 7b3f
00000030: ab80 3e3f a6f8 473f 04a4 683f a14e 623f
00000040: cda8 453f b782 6c3f ba27 733f 1723 813f
00000050: f0c1 743f 8f57 433f 6921 7b3f 4efb 513f
00000060: f2df 813f 9a02 653f f45d 4e3f e60a 633f
00000070: e0a8 593f b6ed 5e3f bdbe 743f acac 4e3f
00000080: 7072 7b3f 135d 7e3f f3f8 5f3f 0575 523f
00000090: 5932 803f d175 723f 20a2 753f 19a5 6e3f
000000a0: d943 683f 6131 503f 8ea3 7d3f 9458 583f
000000b0: b70b 7b3f 8331 6e3f 5ce7 5f3f 2245 603f
000000c0: 1632 6b3f b7ce 7b3f 833c 6b3f b80e 4b3f
000000d0: daca 723f 68de 733f 5901 5d3f fdcc 663f
000000e0: 4072 633f 7c65 353f 92ae 413f 269b 693f
000000f0: 6f3e 413f 4ea4 693f 9aaa 683f 7d4b 513f
